checkpoint_single.pth (torch_old, 169394 bytes, 6 tensors)

fc1.weight f4 [256, 33]
0	0xbce23f1d	-0.027617985
1	0x3d9189e6	0.0710638
2	0x3d1a888c	0.037727877
3	0x3d1a2d01	0.037640575
4	0xbda9f6a7	-0.08298998
5	0x3da8b80f	0.082382314
6	0xbd9dea23	-0.07710674
7	0xbdb13c5f	-0.08654093
8	0x3d0f56c4	0.034994856
9	0xbd6dcf15	-0.058058817
10	0xbe132379	-0.14369
11	0xbca1253a	-0.019671071
12	0xbd8f62ba	-0.070012525
13	0xbdcfd277	-0.10147565
14	0x3cd8a5cc	0.026446246
15	0x3cf661ac	0.03007587
16	0xbe049cad	-0.12950392
17	0xbd9dcd09	-0.07705123
18	0x3e44c919	0.19217338
19	0x3d2b18e8	0.0417718
20	0xbdc6c3ec	-0.09705338
21	0xbe06ab55	-0.13151295
22	0x3c23afd3	0.00999065
23	0xbddcecea	-0.10787375
24	0x38b85010	8.7887165e-05
25	0x3ba36857	0.0049868035
26	0x3d916f2a	0.07101281
27	0xbd08bfc4	-0.033386007
28	0xbe2b5e63	-0.16735224
29	0x3d012a70	0.031534612
30	0x3d884280	0.06653309
31	0x3ce90074	0.028442599
32	0xbf34da6e	-0.706458
33	0x3d0e773e	0.034781687
34	0x3da8156b	0.0820721
35	0xbdf6ff51	-0.120604165
36	0x3e8206bf	0.25395772
37	0xbe37a2b6	-0.17933163
38	0xbe3f7275	-0.18696006
39	0xbc2bdc6b	-0.010489563
40	0x3d632e34	0.055463985
41	0xbc8d9e88	-0.017287508
42	0x3caa60c6	0.020798098
43	0xbca6ea63	-0.020375436
44	0x3e04721b	0.12934153
45	0xbdff427f	-0.12463855
46	0xbe0bf516	-0.13667712
47	0x3d8f3613	0.06992736
48	0xbc456531	-0.012048052
49	0x3e98004f	0.29687735
50	0x3ea9a9af	0.3313727
51	0xbd7f5d1d	-0.06234466
52	0xbd7f93da	-0.06239686
53	0xbce457cc	-0.027873896
54	0x3dae95fe	0.085247025
55	0xbdc52c81	-0.09627629
56	0x3dd4c724	0.103895456
57	0xbe0b61eb	-0.13611571
58	0xbd82c041	-0.06384326
59	0x3e0ca21f	0.1373372
60	0x3de5a935	0.11213914
61	0x3dffab1d	0.12483809
62	0xbd715bca	-0.058925427
63	0xbdcdcfb5	-0.100493826
64	0x3d544e1a	0.051832296
65	0xbef384dc	-0.475623
66	0x3dfd0a9f	0.123555414
67	0x3d89b587	0.06724077
68	0xbe569e6a	-0.20958868
69	0x3e4f7226	0.20258388
70	0xbd29c4d6	-0.041447483
71	0xbe5e146f	-0.21687482
72	0xbce28554	-0.027651466
73	0xbd4635c8	-0.048391134
74	0x3d7d7c73	0.061886262
75	0xbe6dcfa6	-0.23223743
76	0x3d65a84e	0.05606871
77	0xbd16c828	-0.036811978
78	0xbe1e3454	-0.15449649
79	0x3ca494b0	0.020090431
80	0x3cf56c1c	0.029958777
81	0xbd8b0229	-0.067875214
82	0xbe5f2c3b	-0.21794216
83	0xbd48b271	-0.0489983
84	0xbd90b2de	-0.07065366
85	0xbd8a1cf1	-0.067438014
86	0x3cec34db	0.028833797
87	0xbc5b3f0a	-0.013381729
88	0xbde851f6	-0.11343758
89	0x3d91b0ac	0.071137756
90	0x3d88cda7	0.0667985
91	0xbe23faf5	-0.16013701
92	0xbc909f7d	-0.017654175
93	0xbdd218f7	-0.10258668
94	0xbd3a79f0	-0.045526445
95	0x3d064128	0.03277698
96	0x3d2512d3	0.040301155
97	0xbd12a17c	-0.035798535
98	0xbec9cb44	-0.39412892
99	0x3cb7be5a	0.022429634
100	0xbdaf77cf	-0.085677736
101	0x3d9eccb4	0.07753888
102	0xbcc0692d	-0.023487652
103	0x3e2a3cc9	0.1662475
104	0x3e41c80c	0.18923968
105	0x3ea231a9	0.31678513
106	0xbd4712b6	-0.04860183
107	0xbc1d2939	-0.009592348
108	0x3e1697ae	0.14706299
109	0xbde6e44c	-0.11274013
110	0xbb37e004	-0.0028057108
111	0x3dc24e6a	0.094876125
112	0xbe714412	-0.23561123
113	0xbb0bf589	-0.0021356067
114	0x3bc75378	0.0060829483
115	0x3c815776	0.015788775
116	0x3e20b269	0.15693058
117	0xbd043809	-0.03228
118	0xbe99e47e	-0.30057138
119	0x3dce7da5	0.100825585
120	0xbd1c3e39	-0.038145278
121	0x3e343bb2	0.17600897
122	0x3c0993bd	0.00839704
123	0x3c3caac5	0.011515324
124	0xbd8129d9	-0.0630681
125	0x3e3c6a75	0.18399985
126	0xbc07a02c	-0.008277934
127	0x3a82b1d4	0.000997121
128	0xbd63518c	-0.05549769
129	0x3d1b1b07	0.037867572
130	0xbd34cd38	-0.044141024
131	0x3f700a1b	0.9376542
132	0xbd081b8a	-0.03322939
133	0x3d593571	0.05302948
134	0x3dd32ff7	0.10311883
135	0x3c9045ac	0.017611347
136	0x3d0785ed	0.033086706
137	0xbc6dfb20	-0.014525205
138	0xbd4aca40	-0.049509287
139	0xbcfe9771	-0.031078072
140	0xbcadd49a	-0.02121954
141	0xbddcd307	-0.10782438
142	0xbd94b976	-0.07261936
143	0x3d3c0690	0.045904696
144	0x3cf72c92	0.03017262
145	0xbe0a5b6d	-0.13511439
146	0x3da256d1	0.07926715
147	0x3c6f42f4	0.014603365
148	0xbe28a5ea	-0.16469541
149	0xbba8d26e	-0.0051520383
150	0x3dc13d2b	0.09435495
151	0x3e548ac1	0.20756055
152	0xbcdab5cc	-0.026698016
153	0xbd0fa9b8	-0.035073966
154	0xbd51b4b4	-0.051197723
155	0xbdf225ed	-0.1182364
156	0x3cab6165	0.020920465
157	0x3c1eee96	0.009700438
158	0x3e51252f	0.2042434
159	0x3d5bb157	0.05363592
160	0x3d99c581	0.07508374
161	0x3c374fb8	0.01118844
162	0xbd2c0053	-0.041992497
163	0x3d74a828	0.05973068
164	0xbf9c1c66	-1.2196167
165	0xbd9aa847	-0.075516276
166	0xbd199d2c	-0.037503406
167	0x3d0e6706	0.03476622
168	0xbd700dca	-0.0586069
169	0x3de0f357	0.109839134
170	0x3d84119d	0.06448672
171	0xbcedac63	-0.029012864
172	0x3df36770	0.118849635
173	0x3e445403	0.19172673
174	0x3e03edd5	0.12883694
175	0xbca26fdd	-0.019828731
176	0x3cb9d4ab	0.022684416
177	0xbcd8be1b	-0.026457837
178	0xbdd219e3	-0.10258844
179	0xbdeac043	-0.11462452
180	0x3d2ffe2c	0.042967007
181	0xbd82823f	-0.06372499
182	0xbd9d9519	-0.07694454
183	0xbd24188d	-0.040062476
184	0xbd8364d3	-0.06415715
185	0x3d5912a0	0.052996278
186	0x3cc40878	0.02392982
187	0x3d0d1931	0.034447853
188	0x3d7f965e	0.06239926
189	0x3ccd00d1	0.025024803
190	0x3d4e1043	0.050308477
191	0x3ded13fa	0.11576076
192	0xbdc382be	-0.095464215
193	0x3d3369ab	0.043801945
194	0x3cbf8ce8	0.023382619
195	0x3db0b90e	0.086290464
196	0x3c824cb4	0.015905716
197	0xbe93e717	-0.28887245
198	0xbd8cc3e7	-0.06873303
199	0x3d31613e	0.043305628
200	0x3e6a2c12	0.22868374
201	0xbd20e310	-0.039279044
202	0xbd2aa4b2	-0.041660972
203	0xbe88f51c	-0.26749504
204	0x3de46d56	0.11153667
205	0x3dd86bd8	0.105674446
206	0xbd074fbe	-0.033035032
207	0xbd68fdb8	-0.05688259
208	0xbe18e4a1	-0.14930965
209	0x3dc3368d	0.09531889
210	0x3d1d5dc8	0.038419515
211	0x3d3d02ef	0.046145376
212	0x3da0c563	0.078501485
213	0xbd9552b0	-0.07291162
214	0x3dbec0a5	0.09314088
215	0xbdd1d148	-0.10244995
216	0xbdd14c83	-0.102196716
217	0xbb20bc79	-0.00245264
218	0xbe1f62f1	-0.15565087
219	0xbda7fca1	-0.08202482
220	0xbc700cd9	-0.014651501
221	0x3cd9904a	0.02655806
222	0xbd5c675c	-0.05380951
223	0x3db2fd8d	0.08739767
224	0x3d945079	0.072419114
225	0x3dab6a8c	0.083699316
226	0x3dd0dd0c	0.10198411
227	0x3d22ba90	0.0397287
228	0xbe0fc86c	-0.14041299
229	0x3c468038	0.012115531
230	0xbe8a86d2	-0.27055985
231	0x3cbedac0	0.023297668
232	0xbe15a1b0	-0.1461246
233	0x3aeb36a4	0.0017945361
234	0xbdcb66fc	-0.09931752
235	0x3dda3eb8	0.10656494
236	0xbe6df4ce	-0.23237917
237	0xbe689a20	-0.22715044
238	0x3c0462a9	0.008080163
239	0x3dbc2df1	0.0918845
240	0xbd33330f	-0.043749865
241	0xbd3ad3c9	-0.04561213
242	0xbdc5b910	-0.096544385
243	0xbdacfb6c	-0.084463924
244	0xbd84fec5	-0.06493906
245	0xbd30d52c	-0.043172047
246	0xbdd90a1f	-0.105976336
247	0x3dc3d1a7	0.095614724
248	0x3db02cbb	0.08602282
249	0xbd8264f6	-0.06366913
250	0x3e5c9b23	0.21543555
251	0x3db25d05	0.08709148
252	0x3c325a3a	0.0108857695
253	0xbc8d2091	-0.017227443
254	0x3df467c4	0.11933854
255	0xbd128102	-0.035767563

fc1.bias f4 [256]
0	0x3e1c5397	0.15266262
1	0x3d97c90e	0.07411395
2	0x3d489e16	0.048978887
3	0x3e161b8b	0.14658944
4	0xbdc57183	-0.09640791
5	0xbd99be79	-0.07507033
6	0xbe7ca5f5	-0.24672683
7	0xbd8024ff	-0.062570564
8	0xbcffed70	-0.031241149
9	0x3dc7030a	0.097173765
10	0xbc80caa0	-0.01572162
11	0x3d92dca6	0.071709916
12	0x3a0e00e6	0.0005417004
13	0x3e073ad7	0.1320604
14	0xbdf5d3f2	-0.12003316
15	0x3b41c359	0.00295659
16	0xbd824b38	-0.06362003
17	0x3e13f6f0	0.14449668
18	0x3e7c615b	0.24646513
19	0xbda25168	-0.07925683
20	0xbcd1046c	-0.025514804
21	0x3e4392bc	0.19098943
22	0x3dd4cda3	0.103907846
23	0xbd11e621	-0.03561986
24	0xbd246558	-0.04013571
25	0x3c82b445	0.0159551
26	0xbc97225d	-0.018449003
27	0x3da116e3	0.078656934
28	0x3e10be17	0.14135014
29	0x3e4abc2a	0.19798341
30	0x3e49a2ee	0.19691059
31	0xbe34cd7d	-0.17656513
32	0x3c0ec260	0.008713335
33	0xbda7e061	-0.08197094
34	0x3e166249	0.1468593
35	0xbde8c22b	-0.113651596
36	0x3d9b60fc	0.07586858
37	0x3e0fe95b	0.14053862
38	0xbd0e7678	-0.03478095
39	0x3e0a2eac	0.13494366
40	0xbd972a7f	-0.07381152
41	0xbe610c2a	-0.21977296
42	0x3e46dc44	0.19419962
43	0xbe351d3e	-0.17686936
44	0xbd62e288	-0.05539182
45	0xbd8b993b	-0.06816336
46	0x3dafd174	0.08584872
47	0x3e8b0e57	0.27159378
48	0x3e8f5840	0.27997017
49	0xbc8e3c56	-0.017362755
50	0xbda6c9b0	-0.081439376
51	0x3d1b90d8	0.03797993
52	0xbd1750d2	-0.03694231
53	0x3d910f14	0.07082954
54	0xbe48f5de	-0.19625041
55	0x3e13e012	0.14440945
56	0x3e221e0e	0.15831777
57	0xbd0c7e47	-0.034300115
58	0xbd7e29a2	-0.062051423
59	0xbe0aa004	-0.13537604
60	0xbe56ea24	-0.20987755
61	0x3e09caf6	0.1345633
62	0xbe533315	-0.20624955
63	0x3e18abbf	0.14909266
64	0xbdf511fc	-0.11966321
65	0x3d88cf4e	0.06680165
66	0x3dd83515	0.105569996
67	0x3e5d57f0	0.21615577
68	0x3d8437b1	0.06455935
69	0x3daed748	0.085371554
70	0x3e634b45	0.22196682
71	0x3cb9f8b6	0.022701602
72	0x3ba87229	0.005140562
73	0xbe164021	-0.146729
74	0x3e193296	0.14960703
75	0x3e0cdd15	0.13756211
76	0x3e43646a	0.19081274
77	0xbe131c00	-0.1436615
78	0x3e5d61dc	0.21619362
79	0xbc921488	-0.017832056
80	0x3d5a70fe	0.053330414
81	0x3dc46fef	0.09591662
82	0x3d432500	0.047642708
83	0x3dff29a6	0.12459116
84	0x3ddaf956	0.10692088
85	0xbe24f823	-0.16110282
86	0x3cd2f892	0.025753293
87	0x3dd31a69	0.10307772
88	0x3d1ce251	0.03830177
89	0xbe52cdb9	-0.2058629
90	0x3d3edecc	0.046599194
91	0x3d44d837	0.04805776
92	0x3e3c7038	0.18402183
93	0xbdfaf20f	-0.122532
94	0xbe014a1c	-0.12625927
95	0x3d22923a	0.039690234
96	0x3e252e5b	0.16130964
97	0xbe23cb58	-0.15995538
98	0x3e51db3d	0.20493789
99	0x3df2fb66	0.11864357
100	0x3e43cf79	0.19122113
101	0xbe549ad1	-0.20762183
102	0x3da4de07	0.08050161
103	0xbe2a9ab5	-0.16660579
104	0xbe60e574	-0.2196253
105	0x3e6dac97	0.23210369
106	0x3cd191a0	0.025582135
107	0x3e1890ff	0.14899062
108	0x3e381736	0.17977604
109	0xbe466abe	-0.19376656
110	0x3e7c6e28	0.24651396
111	0x3e4ec395	0.20191796
112	0xbdfde755	-0.12397639
113	0xb803d01c	-3.142665e-05
114	0xbe96d31d	-0.29457942
115	0xbdecc8e7	-0.115617566
116	0x3c83101f	0.015998898
117	0xbe2bc4cf	-0.16774295
118	0xbd8e8501	-0.06958962
119	0xbd8f7e77	-0.07006543
120	0x3db45b52	0.088064805
121	0x3d5b98f0	0.05361265
122	0x3eb98858	0.36236835
123	0xbe84b141	-0.25916484
124	0xbd061224	-0.032732144
125	0xbd7192fb	-0.058978062
126	0x3e3f68b3	0.18692283
127	0x3e501b79	0.2032298
128	0x3dbbc6e5	0.091687955
129	0x3e45ef97	0.19329678
130	0xbe2b60e2	-0.16736177
131	0xbd81e524	-0.06342533
132	0x3df56f6a	0.11984141
133	0x3e638c16	0.22221407
134	0x3e33f1f3	0.17572765
135	0xbca0ea60	-0.019643009
136	0xbcc59895	-0.024120608
137	0x3e57c9b1	0.21073033
138	0xbe2a7a52	-0.16648224
139	0xbc629d42	-0.0138314385
140	0x3da80109	0.082033224
141	0xbdecc110	-0.11560261
142	0xbe69a5d0	-0.22817159
143	0xbe932705	-0.28740707
144	0x3d624ff1	0.05525202
145	0xbebf5799	-0.3737152
146	0xbba3ebb0	-0.0050024614
147	0x3b249b67	0.002511704
148	0x3dd02a5f	0.10164332
149	0x3e1e0247	0.15430556
150	0x3d7a4864	0.061104193
151	0xbb9eea42	-0.004849703
152	0xbca829bc	-0.020527713
153	0x3e4c77a9	0.19967522
154	0xbd4cddb8	-0.050016135
155	0x3d9ae76e	0.07563673
156	0x3dea042a	0.114265755
157	0x3ca0cd7b	0.01962923
158	0xbeb9dddd	-0.3630208
159	0xbe30a4db	-0.17250387
160	0x3de02312	0.10944189
161	0xbe24d07b	-0.16095154
162	0x3e380c32	0.17973402
163	0xbe0492e3	-0.12946658
164	0x3e0702b0	0.13184619
165	0x3dc3ce81	0.09560872
166	0x3db1ec32	0.08687629
167	0xbd54bd16	-0.05193814
168	0x3e313a39	0.17307366
169	0x3e879672	0.26481968
170	0xbd8ae375	-0.06781665
171	0x3df53b04	0.11974147
172	0x3e7670da	0.24066487
173	0x3e4ba331	0.19886471
174	0x3e032b30	0.12809443
175	0xbbe10ea4	-0.0068682004
176	0x3e140161	0.14453651
177	0xbdd64956	-0.104632065
178	0x3e826695	0.2546889
179	0x3d0618a6	0.03273835
180	0x3d2a44c7	0.041569497
181	0x3d8bd047	0.06826835
182	0xbbec3357	-0.0072082686
183	0xbde01d4b	-0.10943087
184	0xbcc72cdc	-0.024313383
185	0x3ce511b9	0.027962552
186	0x3c7a5dce	0.015281154
187	0x3c113783	0.008863333
188	0x3dd05e60	0.101742506
189	0x3e1e5194	0.15460807
190	0xbbf2dc31	-0.007411503
191	0x3d247851	0.040153805
192	0x3e192a9c	0.1495766
193	0x3da93af7	0.082632
194	0x3e8e079f	0.2774019
195	0x3d21adf8	0.03947255
196	0x3d8d0319	0.068853565
197	0x3d91003e	0.07080124
198	0xbdb7310a	-0.089449
199	0x3d9b8841	0.07594348
200	0xbd82ae47	-0.06380897
201	0xbe242c41	-0.16032507
202	0x3ddf672b	0.109083496
203	0xbd265a38	-0.040613383
204	0x3e0a3258	0.13495767
205	0x3d038d5c	0.032117233
206	0xbdd0c8d8	-0.10194558
207	0x3d811021	0.063019045
208	0xbe0750f0	-0.13214469
209	0x3c40068b	0.01172031
210	0x3d2f4b4a	0.04279641
211	0x3dd7f83c	0.10545394
212	0xbdfc5680	-0.12321186
213	0xbdbb053e	-0.09131859
214	0x3c6298d3	0.013830381
215	0x3e5b37dd	0.21408029
216	0xbd8c7c26	-0.06859617
217	0x3e497dc4	0.19676882
218	0x3df7b52b	0.12095102
219	0x3d9a9ecb	0.075498186
220	0x3dd6ed2b	0.10494455
221	0xbdf6d48a	-0.12052257
222	0xbe46f22f	-0.19428323
223	0xbdf3aeef	-0.118986
224	0x3e1835aa	0.14864221
225	0x3da7aad9	0.081868835
226	0xbdfddc25	-0.12395505
227	0x3dfaef2e	0.12252651
228	0xbb01c79f	-0.0019802821
229	0x3e15cd97	0.14629208
230	0xbe231c80	-0.1592884
231	0x3de9f9de	0.114246115
232	0xbc83fb1a	-0.016110945
233	0xbc4187cf	-0.011812164
234	0x3ea67d9d	0.3251771
235	0xbe63faef	-0.22263692
236	0x3d1cf056	0.03831514
237	0x3db3660c	0.08759698
238	0xbda8c3a0	-0.082404375
239	0xbe2a5a28	-0.16635954
240	0x3c3da062	0.011573883
241	0xbe55c1d3	-0.2087472
242	0x3e9c6f93	0.30553874
243	0xbe043c94	-0.12913734
244	0x3e112293	0.14173345
245	0xbcbaff9e	-0.022826966
246	0x3e12636d	0.1429574
247	0xbd2b5ea5	-0.041838307
248	0xbc750991	-0.014955894
249	0xbec20ef8	-0.37902045
250	0x3e25c517	0.16188465
251	0xbd72132f	-0.059100326
252	0x3e231998	0.15927732
253	0x3d5e51bd	0.05427717
254	0x3d151f36	0.03640672
255	0x3e19b828	0.15011656

fc2.weight f4 [128, 256]
0	0xbe0d75d4	-0.13814479
1	0x3c63ef17	0.013911984
2	0xbe005055	-0.12530644
3	0xbd93b183	-0.07211592
4	0xbe31ca1e	-0.17362258
5	0xbe532d65	-0.20622785
6	0x3e0fbe6b	0.14037482
7	0xbb6d3c2e	-0.00361992
8	0xbd561f38	-0.052275866
9	0x3d66b4f8	0.05632493
10	0x3da790d1	0.081819184
11	0x3d462c4d	0.048382092
12	0x3da06836	0.07832377
13	0xbd1fb94b	-0.03899507
14	0x3e211350	0.15730023
15	0xbdf2207b	-0.118226014
16	0x3db5c80e	0.08876048
17	0x3e433b97	0.190657
18	0xbe16a4f6	-0.14711365
19	0x3d2aaeb4	0.041670516
20	0x3dacada7	0.08431559
21	0x3ed1fa56	0.41011304
22	0xbc81936b	-0.015817365
23	0xbc676bf8	-0.014124863
24	0x3e9267aa	0.28594714
25	0xbdd70cd7	-0.10500496
26	0x3c860948	0.016361848
27	0xbe9a073c	-0.30083644
28	0xbea09904	-0.31366742
29	0x3d38eb13	0.04514606
30	0xbd743a97	-0.059626188
31	0xbe53a2ed	-0.2066762
32	0xbc5ed8be	-0.01360148
33	0x3e828a70	0.25496244
34	0xbc49662a	-0.012292424
35	0x3c0474c1	0.008084477
36	0x3d5b83bc	0.05359243
37	0xbcd55851	-0.02604309
38	0xbe69c84f	-0.22830318
39	0xbe8f1643	-0.27946672
40	0xbe40a5f4	-0.18813306
41	0x3da7c585	0.08191971
42	0x3bbeaf6c	0.0058192518
43	0x3d25e3a1	0.040500287
44	0xbce37de3	-0.027769988
45	0x3db23e1c	0.08703253
46	0x3c44dbbe	0.012015281
47	0x3c4f6e60	0.012660593
48	0xbd2f5bc1	-0.042812113
49	0xbe66ba9c	-0.22532123
50	0x3d969739	0.07353062
51	0x3cc0a809	0.023517625
52	0xbd717024	-0.058944836
53	0x3e0f8c51	0.1401837
54	0xbe4e5b7e	-0.20152089
55	0x3d03833a	0.03210757
56	0xbdbca220	-0.092106104
57	0x3c0e3382	0.008679273
58	0x3d2ef315	0.04271229
59	0xbbcaa360	-0.0061840266
60	0xbcfd86b0	-0.030948013
61	0x3e5f8848	0.21829331
62	0xbbe882be	-0.007095664
63	0x3cffb0a2	0.031212155
64	0xbd1b674f	-0.03794032
65	0xbc5e5dbe	-0.013572155
66	0xbc1d84d0	-0.0096141845
67	0x3d8a884b	0.06764277
68	0x3dbba9c3	0.09163239
69	0xbde45099	-0.11148185
70	0xbd8d4d02	-0.06899454
71	0xbd1581c0	-0.036500692
72	0xbd5cc6b2	-0.053900428
73	0x3e0491fb	0.12946312
74	0x3c8eb780	0.017421484
75	0x3e892413	0.26785335
76	0x3d176f79	0.036971543
77	0x3e3fea74	0.1874178
78	0xbe6c8a63	-0.23099665
79	0x3d1f9395	0.038959105
80	0xbdb53e08	-0.08849722
81	0xbd255239	-0.040361617
82	0x3d91c200	0.07117081
83	0x3e1fd4d5	0.15608533
84	0x3d2ebbaf	0.042659458
85	0x39ac98c6	0.00032920222
86	0x3cce271a	0.02516513
87	0x3d95ac5c	0.073082656
88	0x3dd2cf56	0.102934524
89	0x3e110fbf	0.14166163
90	0x3ea82e0b	0.32847628
91	0xbc2eb19c	-0.010662463
92	0xbc110a83	-0.008852604
93	0x3bbc5341	0.0057472293
94	0x3d524964	0.051339522
95	0xbe195379	-0.14973249
96	0x3e7bcb85	0.24589355
97	0x3c0d378b	0.0086191995
98	0x3d4074db	0.046986442
99	0xbbfc15fc	-0.0076930504
100	0x3e27c3e5	0.16383322
101	0x3ea515be	0.3224315
102	0x3d4cc387	0.049991157
103	0xbe62da9b	-0.22153704
104	0x3ddecd27	0.108789735
105	0xbe61ef07	-0.22063838
106	0xbe2c9b29	-0.16856064
107	0x3dd9b4cd	0.10630188
108	0x3c96ebde	0.018423017
109	0x3eb32693	0.34990367
110	0xbb58f354	-0.003310402
111	0x3da76f7f	0.08175563
112	0x3daf38e5	0.08555774
113	0x3e0d217a	0.13782302
114	0xbd0374c0	-0.032093763
115	0x3dd4a956	0.10383861
116	0x3ea16ac4	0.31526768
117	0xbcb19dbb	-0.021681657
118	0x3bce937a	0.0063042017
119	0xbeaf5407	-0.34243795
120	0x3c63f571	0.013913498
121	0x3e13af0c	0.14422244
122	0xbd5df0d3	-0.054184746
123	0x3db6d538	0.08927387
124	0x3c9b9711	0.018992933
125	0x3e4aca63	0.19803767
126	0x3bcb65ec	0.0062072184
127	0xbd03f890	-0.03221947
128	0x3cee7b2f	0.029111473
129	0x3d9aafcb	0.07553061
130	0xbe21ab66	-0.1578804
131	0x3deddc36	0.116142675
132	0x3d043523	0.032277238
133	0xbe346732	-0.17617491
134	0x3d525f83	0.05136062
135	0xbdc21be8	-0.09477979
136	0xbd8bf3ba	-0.068335965
137	0x3c4c7c3e	0.0124807935
138	0x3d5bb79e	0.053641908
139	0xbdc032bf	-0.09384679
140	0xbd0e683c	-0.034767374
141	0xbe0b72cc	-0.1361801
142	0xbca16351	-0.019700678
143	0x3e0472da	0.12934437
144	0xbbfbf8d5	-0.007689575
145	0x3f12a96a	0.57289755
146	0x3d896fe2	0.06710793
147	0xbd5d3d0f	-0.05401331
148	0xbda089aa	-0.07838757
149	0xbceeff9b	-0.029174617
150	0x3d51711a	0.051133253
151	0x3dcf5c7c	0.10125062
152	0xbcbc5e75	-0.02299426
153	0x3dce4639	0.10071988
154	0x3d9aac51	0.07552398
155	0x3e02245b	0.12709181
156	0x3d90bf7b	0.07067772
157	0x3d9bf435	0.07614938
158	0xbe4f5984	-0.20248991
159	0x3be3f0f0	0.006956212
160	0x3d72f71c	0.059317693
161	0x3de1e652	0.11030258
162	0x3d5d48b6	0.05402442
163	0x3ddc02f4	0.10742751
164	0xbc5d04b1	-0.013489888
165	0xbe374939	-0.17899026
166	0x3eb7e4ec	0.3591684
167	0xbd279ff2	-0.04092402
168	0x3dcaa2e6	0.09894352
169	0xbd993cc3	-0.074822925
170	0x3cc09d9b	0.023512652
171	0x3cc15e2c	0.023604475
172	0xbd7f8784	-0.062385097
173	0xbd4f78b2	-0.050652213
174	0xbb9945c7	-0.0046775076
175	0x3dc8665e	0.0978515
176	0x3cda53e7	0.026651336
177	0xbd406dba	-0.046979643
178	0xbca78cdc	-0.02045291
179	0x3cb80312	0.022462402
180	0xbd8226bd	-0.06355045
181	0xbd8eb011	-0.06967176
182	0x3d84d7fe	0.0648651
183	0xbe80616a	-0.2507432
184	0x3db3262d	0.08747516
185	0x3d745b1f	0.059657212
186	0x3ccae1ee	0.024765935
187	0x3df6f772	0.12058915
188	0x3d437152	0.047715493
189	0xbdbd8d6f	-0.09255492
190	0x3e88c62b	0.2671369
191	0xbe331cca	-0.17491451
192	0x3e575ea3	0.21032195
193	0xbe3c0915	-0.1836284
194	0xbdeff97b	-0.117175065
195	0xbca1d9e9	-0.019757228
196	0x3bf39a2c	0.00743415
197	0xbc30816c	-0.010773044
198	0x3e0c35e3	0.13692431
199	0xbe095b58	-0.13413751
200	0xbde9624d	-0.113957025
201	0xbd2b5d3a	-0.041836955
202	0x3cf8322c	0.030297361
203	0xbe06bdeb	-0.13158385
204	0x3d8e851e	0.06958984
205	0x3dad7040	0.084686756
206	0xbe4efa42	-0.20212653
207	0xbd255617	-0.040365305
208	0x3a5a7828	0.0008333945
209	0x3cc5b51f	0.024134217
210	0xbd873d67	-0.066035084
211	0xbc04cc7e	-0.008105395
212	0x3dccb764	0.099959165
213	0xbe19438e	-0.14967176
214	0xbe756e6f	-0.23967908
215	0x3e39dff8	0.18151844
216	0xbdecf72b	-0.11570581
217	0xbab63d17	-0.0013903704
218	0xbdff0983	-0.12452986
219	0x3cae0200	0.021241188
220	0x3e8d8e02	0.27647406
221	0x3d58b6db	0.05290876
222	0x3d974990	0.07387078
223	0xbd3f32ef	-0.046679433
224	0xbc302acf	-0.010752394
225	0xbda24819	-0.07923908
226	0x3d22088e	0.03955894
227	0xbcc77639	-0.024348365
228	0xbe1e9f5d	-0.1549048
229	0xbe29b9d7	-0.16574799
230	0x3dbbfe06	0.091793105
231	0xbe6091c4	-0.21930605
232	0x3dfab06b	0.1224068
233	0xbad5747f	-0.0016285329
234	0x3ddfffc9	0.10937459
235	0xbcec1eda	-0.028823305
236	0x3d284763	0.041083705
237	0xbdd07e48	-0.10180336
238	0x3e3eb0d5	0.18622144
239	0xb9eb305c	-0.00044858723
240	0xbe1447c3	-0.144805
241	0xbc903948	-0.017605439
242	0xbd682da7	-0.056684162
243	0xbe474866	-0.19461212
244	0x3d9b217e	0.075747475
245	0x3da9a713	0.0828382
246	0x3d4c72e3	0.049914252
247	0xbbb4189e	-0.0054960987
248	0x3b0977b8	0.00209759
249	0x3d5f7aa1	0.054560307
250	0xbc9dcc07	-0.019262327
251	0x3e3718e2	0.17880586
252	0x3d2d9eac	0.04238765
253	0xbe6bd1b7	-0.23029219
254	0x3e8238ae	0.25433868
255	0xbda54a54	-0.080708176

fc2.bias f4 [128]
0	0x3cce6421	0.02519423
1	0xbd4eb207	-0.05046275
2	0x3be70e93	0.007051298
3	0xbd6e0701	-0.05811215
4	0xbbaf8472	-0.005356365
5	0x3d4e94a1	0.050434712
6	0xbd77bc3c	-0.06048225
7	0xbdb66144	-0.08905271
8	0x3c920895	0.017826358
9	0xbd1834e9	-0.037159834
10	0xbd0f8112	-0.0350352
11	0xbbecf5cf	-0.007231451
12	0xbc9fcc06	-0.019506466
13	0x3b8d804e	0.0043182736
14	0xbcd42733	-0.025897598
15	0x3d516861	0.051124934
16	0x3d97b88f	0.07408249
17	0x3da6dc40	0.08147478
18	0x3c92eb9d	0.017934615
19	0x3c0492ef	0.008091672
20	0x3d03765c	0.0320953
21	0x3d89c9f6	0.06727974
22	0xbdb96e4a	-0.09054239
23	0x3df763dc	0.120795935
24	0x3e3eab70	0.18620086
25	0xbd81f237	-0.06345027
26	0xbcfe3305	-0.031030187
27	0x3d46eae1	0.04856384
28	0x3cf00304	0.029298313
29	0x3daf8ba5	0.08571557
30	0xbdc9cac8	-0.098531306
31	0xbd7e6a0e	-0.06211286
32	0x3ba2fa6d	0.0049737007
33	0x3cb1cc83	0.021703964
34	0xbda3b25f	-0.07993006
35	0x3cf30efc	0.029670231
36	0x3d322717	0.04349431
37	0xbc4784ba	-0.012177641
38	0xbb99f7ef	-0.0046987454
39	0xbd95a623	-0.07307079
40	0x3d9c1247	0.076206736
41	0xbd1a99cf	-0.03774434
42	0x3d943379	0.0723638
43	0xbd11f68c	-0.035635516
44	0xbd658c53	-0.056042027
45	0xbd1f3f3c	-0.038878664
46	0x3d0fa017	0.035064783
47	0xba22957a	-0.00062020833
48	0x3cbe962a	0.023264963
49	0x3d852181	0.06500531
50	0xbc84fd1b	-0.016233971
51	0x3bf932ed	0.007604948
52	0xbd65f12e	-0.05613821
53	0xbc1e33c9	-0.009655901
54	0x3c224061	0.009903044
55	0x3cd1d8aa	0.025616009
56	0x3d0ba874	0.034096196
57	0x3c30ab95	0.010783096
58	0x3d430bfe	0.04761886
59	0xbbaf7a44	-0.0053551514
60	0x3cc77629	0.024348335
61	0x3d884af2	0.0665492
62	0x3cc20933	0.023686027
63	0x3d96277f	0.07331752
64	0xbd7cb864	-0.061699286
65	0x3d801fd4	0.06256071
66	0x3d15c45a	0.03656421
67	0xbbafdb4e	-0.0053667193
68	0x3d1d5879	0.038414452
69	0xbd6915b2	-0.056905456
70	0x3c64fe48	0.013976641
71	0x3d83494b	0.06410464
72	0x3d0d1cdd	0.034451354
73	0x3d21dba4	0.039516106
74	0x3d68d35b	0.05684219
75	0x3cc7fe76	0.024413329
76	0xbe1660b0	-0.14685321
77	0x3ccd5c45	0.025068412
78	0x3d49feb6	0.049315177
79	0x3d9f6e0e	0.07784663
80	0x3c66d5a9	0.0140890265
81	0x3c724701	0.014787436
82	0x3d9204ce	0.07129823
83	0x3d082080	0.03323412
84	0x3d906701	0.070508964
85	0xbd970cb5	-0.073754705
86	0x3d960eea	0.073270634
87	0x3d994517	0.07483881
88	0x3d9bb86e	0.076035365
89	0xbc2af66c	-0.010434728
90	0x3d20f42f	0.03929537
91	0x3d8d2cc6	0.068933055
92	0x3d314257	0.043276157
93	0x3d16242b	0.036655586
94	0xbcc9f527	-0.02465303
95	0x3d28087a	0.04102371
96	0xbd307990	-0.04308468
97	0x3d4a8170	0.049439847
98	0xbd0a3aaf	-0.03374737
99	0x3bf637b0	0.0075139627
100	0x3c35f88f	0.011106624
101	0x3da2d569	0.07950861
102	0xbdb5ab59	-0.088705726
103	0x3d2a8a8e	0.041636042
104	0x3bd3f33d	0.0064682052
105	0xbd39f74f	-0.045401867
106	0x3d284dd5	0.04108985
107	0xbc2d7a25	-0.010588204
108	0x3d914604	0.070934325
109	0xbdb23d21	-0.08703066
110	0x3c64566f	0.013936623
111	0xbd7a9d70	-0.0611853
112	0x3e0b83e0	0.13624525
113	0xbdf738ab	-0.120713554
114	0x3db6e429	0.08930237
115	0x3d627eee	0.05529683
116	0x3c9a5db3	0.018843507
117	0x3d9684bf	0.07349538
118	0x3d887d74	0.06664553
119	0x3db6b87d	0.08921907
120	0xbbf2d67f	-0.007410824
121	0x3d463f00	0.048399925
122	0x3c03ba3c	0.008040007
123	0x3dbccb18	0.092184246
124	0xbc4ddc16	-0.01256468
125	0xbd1c0746	-0.038092874
126	0xbdcbd0ab	-0.0995191
127	0xbc9f5a60	-0.019452274

fc3.weight f4 [4, 128]
0	0x3ed26a1e	0.41096586
1	0x3dc57449	0.0964132
2	0xbf103e16	-0.56344736
3	0x3e8be0b1	0.27319863
4	0xbd40bc7c	-0.047054753
5	0x3d9e16e2	0.07719208
6	0x3e80a593	0.25126323
7	0x3d90c6c1	0.07069159
8	0xbd47477f	-0.04865217
9	0xbef3be5e	-0.47606176
10	0xbdbaa4bf	-0.09113454
11	0x3d41d3f8	0.04732129
12	0x3e490971	0.19632508
13	0x3e1ff5b3	0.1562107
14	0x3ece251f	0.40262696
15	0x3edb5309	0.42836788
16	0xbf0a1ec6	-0.53953207
17	0x3d4bd5ed	0.049764562
18	0x3d98ff22	0.07470538
19	0xbdaf8e61	-0.085720785
20	0xbd2d58a7	-0.042320874
21	0x3e974e89	0.29552105
22	0x3db7d9c1	0.0897708
23	0x3d42184f	0.047386464
24	0xbe3f6e4e	-0.18694422
25	0xbf1d2c4f	-0.61395735
26	0xbe364c82	-0.17802623
27	0x3c87b6de	0.01656669
28	0x3ddba843	0.10725453
29	0xbf091c69	-0.53558975
30	0xbde350af	-0.110993735
31	0x3e22b638	0.15889823
32	0x3df3f07c	0.11911103
33	0xbe8aeacd	-0.27132264
34	0xbda5e316	-0.08099954
35	0x3d312faf	0.043258365
36	0xbc4112cc	-0.011784267
37	0xbebfc012	-0.37451226
38	0x3e9aa85d	0.30206576
39	0xbe94f2c1	-0.29091457
40	0xbe1fde88	-0.15612233
41	0x3ec9eb88	0.3943751
42	0xbf18d67c	-0.5970228
43	0x3f4fa7eb	0.811156
44	0x3e56dc2e	0.2098243
45	0x3e731092	0.2373679
46	0xbdeb93ea	-0.11502822
47	0xbd9f1d57	-0.07769268
48	0xbe23828f	-0.15967773
49	0xbecee498	-0.40408778
50	0xbdaab207	-0.08334737
51	0xbd8c77cb	-0.06858786
52	0xbeb2862d	-0.34867993
53	0x3d3e9374	0.04652734
54	0x3f0497ee	0.51794326
55	0xbe577243	-0.21039681
56	0x3e9711a7	0.29505655
57	0x3e3976b4	0.18111688
58	0x3d91427f	0.07092761
59	0x3e34e1b9	0.17664231
60	0xbe9b89b5	-0.303785
61	0xbe7aa73a	-0.24477854
62	0x3ef61f4c	0.48070753
63	0xbe657585	-0.22408111
64	0x3d0a2cfc	0.033734307
65	0x3cfad4e2	0.030619089
66	0xbf42153e	-0.75813663
67	0xbd1e45cc	-0.038640782
68	0xbdb0f25e	-0.08639978
69	0x3eda56e1	0.42644408
70	0xbd345c1a	-0.044033147
71	0xbe35af24	-0.17742592
72	0x3cf0d674	0.029399134
73	0x3dc43636	0.095806524
74	0x3da5f6d3	0.081037186
75	0x3d8223f1	0.063545115
76	0xbf2c1fd1	-0.6723605
77	0xbd2c4c52	-0.042064972
78	0x3d66a0e4	0.05630578
79	0x3e8d8d32	0.27646786
80	0xbd27a583	-0.04092933
81	0x3e148fd2	0.14507988
82	0x3d2656c8	0.040610105
83	0x3ef755d5	0.48307672
84	0xbf0f289e	-0.5592135
85	0xbcbcf008	-0.023063675
86	0x3eb84b0e	0.35994762
87	0xbdf46396	-0.11933057
88	0xbdc87901	-0.09788705
89	0x3e885b04	0.2663194
90	0x3efec001	0.49755862
91	0xbb7f055a	-0.0038913102
92	0xbd691723	-0.05690683
93	0xbe9f45bd	-0.31107894
94	0x3e2d5795	0.16927941
95	0x3d76e5ed	0.060277868
96	0x3dd937e5	0.10606364
97	0x3ebd58e5	0.36981884
98	0xbe40531e	-0.18781707
99	0xbf106cf2	-0.5641624
100	0xbe17bab3	-0.14817314
101	0xbe593078	-0.21209896
102	0x3c2dffab	0.010620038
103	0x3da48139	0.0803246
104	0x3e9a824f	0.30177543
105	0x3e71359d	0.23555608
106	0xbf470395	-0.7773984
107	0xbd146a2b	-0.036234062
108	0x3d9765c5	0.07392458
109	0x3dca37c4	0.09873918
110	0x3c1dc8d3	0.0096304
111	0x3ea7ff81	0.32812122
112	0xbea369c3	-0.31916627
113	0xbe927bb6	-0.2861001
114	0xbe264963	-0.16238932
115	0xbefd49b0	-0.49470282
116	0x3e30067e	0.17189977
117	0x3c8df417	0.017328305
118	0x3e757f8f	0.23974441
119	0x3d8ced47	0.068811946
120	0xbd69d669	-0.057089243
121	0xbe9be202	-0.30445868
122	0xbd1e73dd	-0.038684715
123	0xbeaccef3	-0.3375164
124	0xbebb69fc	-0.36604297
125	0x3dde627f	0.108586304
126	0xbeef8dab	-0.46787772
127	0x3d7fe687	0.062475707
128	0x3e35451f	0.17702149
129	0x3e998721	0.29985908
130	0x3bd459a7	0.006480414
131	0x3dec91ba	0.11551233
132	0x3da0e52b	0.0785621
133	0xbdc2576c	-0.09489331
134	0x3eac40ac	0.3364309
135	0x3eac1e92	0.33617073
136	0x3df1c8ec	0.11805901
137	0xbd99ca99	-0.075093456
138	0x3e028866	0.12747344
139	0x3d411d6a	0.047147192
140	0xbd1c318a	-0.03813318
141	0xbdfa72ef	-0.12228953
142	0xbe8170eb	-0.25281462
143	0x3e030c65	0.12797697
144	0xbe859f07	-0.2609789
145	0x3ea33c75	0.31882063
146	0xbd416caf	-0.04722279
147	0x3d748d6d	0.059705187
148	0x3c47a47a	0.01218521
149	0xbdd5b828	-0.10435516
150	0xbd1ab275	-0.037767846
151	0xbe6092d6	-0.21931013
152	0xbebcd473	-0.36880836
153	0xbed3227f	-0.41237256
154	0xbe1ca1a4	-0.15296036
155	0x3e60b61a	0.21944466
156	0x3a992c06	0.0011686094
157	0x3d10c5ab	0.03534476
158	0x3cf8f62b	0.03039082
159	0x3e76839f	0.24073647
160	0xbc2f0b7d	-0.010683891
161	0xbcb8db04	-0.022565372
162	0x3d836152	0.06415047
163	0x3d0091e2	0.031389125
164	0x3caf9636	0.02143393
165	0x3ded25c1	0.115794666
166	0x3d8fa881	0.070145614
167	0x3e835ccb	0.25656733
168	0x3df67e39	0.12035794
169	0x3decb136	0.11557238
170	0x3dc39b7f	0.09551143
171	0xbe56c08a	-0.20971885
172	0xbe2394b7	-0.15974699
173	0x3e719c2a	0.23594728
174	0x3e2fa2c1	0.1715193
175	0x3d96e08d	0.073670484
176	0x3d26fba1	0.040767316
177	0x3ce684b1	0.028139444
178	0xbe1f0b03	-0.15531544
179	0x3dd6a80d	0.10481272
180	0x3cebfe3c	0.028807752
181	0xbea60042	-0.32422072
182	0xbcd35c75	-0.025800923
183	0xbeaecf51	-0.34142545
184	0x3d41df28	0.04733196
185	0x3de4c448	0.1117025
186	0xbe025da0	-0.12731028
187	0x3d326125	0.043549675
188	0xbe3ecee9	-0.18633617
189	0x3dc79f50	0.09747183
190	0xbe2f5aa6	-0.17124423
191	0x3d3fa3fe	0.046787255
192	0xbc8084b2	-0.015688274
193	0x3e734e8d	0.23760433
194	0xbd13c558	-0.036076874
195	0xbe6cb168	-0.2311455
196	0xbe2a003a	-0.16601649
197	0xbe6e60e2	-0.23279145
198	0x3dcbc2e0	0.09949279
199	0x3dc5cb8a	0.096579626
200	0x3d6f176d	0.05837195
201	0xbe6a1bae	-0.22862121
202	0xbe6f79fc	-0.23386377
203	0xbe36bc27	-0.17845212
204	0xbed96a22	-0.42463785
205	0x3e684a07	0.22684489
206	0x3e9c963d	0.30583373
207	0xbe89d883	-0.26922998
208	0x3cda8af6	0.02667759
209	0xbf009bb2	-0.5023757
210	0xbd9efdc6	-0.07763247
211	0xbe8d517c	-0.2760123
212	0xbd270cf0	-0.040783823
213	0x3eac993e	0.33710665
214	0x3e717d50	0.23582959
215	0x3d8581a8	0.065188706
216	0x3ddc7816	0.10765092
217	0x3e07fd68	0.1328026
218	0xbdd92877	-0.10603421
219	0x3d7c3c5d	0.061581004
220	0x3db998f6	0.09062378
221	0xbd90df8e	-0.0707389
222	0xbb96d711	-0.0046032746
223	0xbe9a098e	-0.30085415
224	0x3d65f074	0.056137517
225	0xbe58d487	-0.21174823
226	0x3dda4f47	0.10659652
227	0x3d40b6c2	0.04704929
228	0x3cb439d0	0.022000223
229	0x3ccc3b7b	0.024930706
230	0x3dac8ab3	0.08424892
231	0xbe29eaac	-0.16593426
232	0xbe8eafcf	-0.27868506
233	0x3ecbeff6	0.39831513
234	0xbd089676	-0.033346616
235	0xbd8c4859	-0.06849737
236	0xbd56f3be	-0.052478544
237	0xbe053bd0	-0.13011098
238	0xbcf2e41a	-0.029649783
239	0x3e3bfc44	0.1835795
240	0x3ed3d3ab	0.41372427
241	0x3f27ecd0	0.6559572
242	0xbd10834f	-0.035281476
243	0x3b69cdef	0.0035675725
244	0x3e852847	0.26007292
245	0xbe10098a	-0.14066139
246	0x3f0126c7	0.50449795
247	0xbd6aea89	-0.057352576
248	0x3d82b10f	0.063814275
249	0x3f2df481	0.6795121
250	0xbcd105c2	-0.02551544
251	0xbe91f332	-0.28505856
252	0xbe2b3ef5	-0.16723235
253	0x3e9a5553	0.30143222
254	0x3cec4fd6	0.028846662
255	0xbf599592	-0.8499385

fc3.bias f4 [4]
0	0xba7dd0e0	-0.0009682309
1	0xbce9756f	-0.02849838
2	0x3db25005	0.08706669
3	0xbdec4c64	-0.11538008
