checkpoint_single.pth (torch_old, 169394 bytes, 6 tensors)

fc1.weight f4 [256, 33]
0.16862822 -0.09015579 -0.060082056 -0.036870092 0.0039661108 0.05612192 -0.23939373 0.122193046
-0.08221892 -0.12161053 -0.053746566 -0.045437817 -0.05883937 -0.028812176 0.08701492 0.17368537
0.090395175 0.086099245 -0.045599066 0.02942533 -0.03705594 -0.056781095 -0.019969745 0.055876378
-0.021292415 0.044571463 -0.017048612 0.14276284 -0.24832162 0.031534612 -0.1096139 0.028442599
0.52234685 -0.13424733 -0.06909343 -0.10689962 0.11885775 0.044546325 -0.0643233 0.045984045
0.047891654 -0.103154734 0.124225035 -0.1323291 0.032030616 0.05798839 0.09441036 -0.058356825
0.05365021 0.04727028 -0.009583332 0.0012056318 0.06648359 -0.005802133 -0.020721203 0.094095536
-0.20058073 -0.060592327 0.12138554 0.028539794 0.049085215 0.0015843288 -0.058925427 -0.037440337
0.051832296 -0.49112687 0.084829666 0.0452413 -0.15491977 0.13902044 -0.027274251 0.020311072
-0.036385234 -0.0014973873 -0.22053756 -0.11104649 -0.043600675 -0.02519237 0.027866475 -0.11115996
-0.005660169 0.22948915 0.0227638 -0.03626315 -0.121727526 -0.041591067 -0.014685107 -0.03765495
0.034041494 -0.06281078 -0.047648065 0.029258946 -0.028960684 0.007134291 -0.18534029 0.03277698
-0.0694201 -0.035798535 -0.8526343 -0.16414094 0.27937433 0.1110926 -0.051850587 0.20506355
0.16514206 -0.014103798 -0.05830583 -0.14139976 0.03245548 -0.111322634 0.04272155 0.06228728
-0.08629156 -0.04625184 -0.10043841 0.12830102 0.08341047 0.24197228 -0.24309592 0.1106529
-0.014375636 -0.062488757 -0.07495718 -0.23555644 -0.017346604 0.0477536 -0.10602394 0.0579774
-0.05549769 0.13561526 -0.044141024 0.5566809 0.067535914 -0.12964897 -0.10050459 -0.20991743
0.19429559 0.0015792217 0.2217446 0.009777152 0.13972604 -0.021417197 -0.036964484 -0.033497524
-0.025066175 0.019754432 0.18008208 -0.04399295 -0.048283372 -0.0065132575 0.1148525 0.014757178
-0.08644626 0.07000865 0.09692973 -0.04353505 0.050483447 -0.058368184 0.055904664 -0.040912524
0.21306609 0.01118844 0.052555412 0.05973068 -0.04811145 -0.13982666 0.092497736 0.018288497
0.054331712 -0.0142111555 0.05872069 0.04710214 0.04931002 -0.0100861145 0.013411351 -0.15657909
0.054773025 -0.09649205 -0.02102704 0.08036772 0.10438304 0.038254675 -0.037795562 -0.17162378
0.07124165 -0.012853619 -0.21836145 0.0401991 0.09413491 0.045020774 0.15144369 -0.073108606
0.08342426 0.058412213 0.023382619 -0.092597775 0.015905716 -0.71510607 -0.008832592 -0.13214266
0.014866766 0.0009609583 -0.11525683 -0.030737335 -0.075272016 0.03853863 -0.017429523 0.11355814
-0.06354659 0.1168631 0.10841037 0.21287325 0.112984896 0.055137444 0.22956175 -0.08088145
-0.0041848933 0.07892888 0.013592116 -0.039902404 -0.09261542 0.14280842 0.052039914 -0.04471221
-0.058150128 -0.15961024 0.057036415 0.0397287 0.102894336 0.012115531 -0.9313247 -0.032841202
-0.053767327 -0.030066138 0.18946666 -0.13069068 0.029418806 -0.024505453 0.14648266 -0.12218264
0.039768614 0.07082148 -0.055794414 -0.0034254165 0.29076007 0.08906027 -0.043698277 -0.15195826
-0.2710356 0.1547098 0.06403831 0.053903963 0.0171695 0.080340534 0.26259896 0.10448644
00000000: e0ac 2c3e 99a3 b8bd 9a18 76bd 1805 17bd
00000010: 26f6 813b 19e0 653d a123 75be 5940 fa3d
00000020: 6562 a8bd f10e f9bd 5c25 5cbd 011d 3abd
00000030: 8d01 71bd 8307 ecbc e134 b23d 94da 313e
00000040: 1b21 b93d cd54 b03d 16c6 3abd 640d f13c
00000050: f8c7 17bd 4b93 68bd 9797 a3bc a1de 643d
00000060: 6e6d aebc 9190 363d 88a9 8bbc 6c30 123e
00000070: 0648 7ebe 702a 013d 417d e0bd 7400 e93c
00000080: 86b8 053f 2278 09be db80 8dbd 30ee dabd
00000090: b16b f33d 3576 363d efbb 83bd c459 3c3d
000000a0: 0a2a 443d ca42 d3bd b269 fe3d 4881 07be
000000b0: 8932 033d 3c85 6d3d 385a c13d 9107 6fbd
000000c0: 53c0 5b3d 7b9e 413d 6803 1dbc 4a06 9e3a
000000d0: 8c28 883d d21f bebb 83bf a9bc 29b5 c03d
000000e0: 0965 4dbe a92f 78bd fb98 f83d 49cc e93c
000000f0: 940d 493d 41a9 cf3a ca5b 71bd 0a5b 19bd
00000100: 1a4e 543d fb74 fbbe 2dbb ad3d f14e 393d
00000110: 4aa3 1ebe 605b 0e3e 406e dfbc 6863 a63c
00000120: af08 15bd fb43 c4ba 99d4 61be 586c e3bd
00000130: 9f96 32bd 3b60 cebc 3c48 e43c d5a7 e3bd
00000140: f078 b9bb 34ff 6a3e 267b ba3c ab88 14bd
00000150: 484c f9bd 655b 2abd ce99 70bc 143c 1abd
00000160: 186f 0b3d f0a2 80bd 9e2a 43bd 75b0 ef3c
00000170: f53e edbc c5c6 e93b d8c9 3dbe 2841 063d
00000180: 202c 8ebd 7ca1 12bd 3e46 5abf 9014 28be
00000190: 270a 8f3e 8484 e33d 4861 54bd 2efc 513e
000001a0: 001b 293e 9e13 67bc 18d2 6ebd 19cb 10be
000001b0: 0af0 043d 1ffd e3bd cbfc 2e3d f220 7f3d
000001c0: a1b9 b0bd 9272 3dbd a7b2 cdbd 5861 033e
000001d0: 1cd3 aa3d 95c7 773e 23ee 78be fd9d e23d
000001e0: ca87 6bbc 36f4 7fbd 2683 99bd b535 71be
000001f0: 771a 8ebc 4799 433d 1423 d9bd b679 6d3d
00000200: 8c51 63bd bade 0a3e 38cd 34bd a482 0e3f
00000210: 4550 8a3d b3c2 04be 5ad5 cdbd 98f4 56be
00000220: 6cf5 463e e3fd ce3a 0411 633e 5930 203c
00000230: 5814 0f3e 1e73 afbc 1268 17bd b334 09bd
00000240: 9457 cdbc 0cd4 a13c 7067 383e f431 34bd
00000250: c9c4 45bd 2a6d d5bb ca37 eb3d 17c8 713c
00000260: bd0a b1bd b260 8f3d 1883 c63d cf51 32bd
00000270: bbc7 4e3d 7a13 6fbd 4afc 643d e493 27bd
00000280: ff2d 5a3e b84f 373c 5844 573d 28a8 743d
00000290: 8310 45bd b82e 0fbe 746f bd3d c2d1 953c
000002a0: ee8a 5e3d e8d5 68bc 1b85 703d 2cee 403d
000002b0: 4ef9 493d 3b40 25bc 48bb 5b3c 4556 20be
000002c0: ae59 603d a09d c5bd e640 acbc d597 a43d
000002d0: c6c6 d53d efb0 1c3d 85cf 1abd 25be 2fbe
000002e0: 24e7 913d fc97 52bc 259a 5fbe d0a7 243d
000002f0: cec9 c03d b467 383d 0e14 1b3e f7b9 95bd
00000300: 57da aa3d a541 6f3d e88c bf3c e7a3 bdbd
00000310: b44c 823c 3111 37bf 93b6 10bc 6850 07be
00000320: bc93 733c d2e8 7b3a c60b ecbd ddcc fbbc
00000330: 3728 9abd afda 1d3d 5cc8 8ebc 2c91 e83d
00000340: b724 82bd ec55 ef3d 4206 de3d 72fb 593e
00000350: a064 e73d cdd7 613d 3c12 6b3e 2ca5 a5bd
00000360: 6e21 89bb 77a5 a13d 77b1 5e3c b470 23bd
00000370: 27ad bdbd 5f3c 123e ce27 553d 2624 37bd
00000380: d42e 6ebd de70 23be 049f 693d 90ba 223d
00000390: 44ba d23d 3880 463c 4c6b 6ebf 7f84 06bd
000003a0: 213b 5cbd 434d f6bc 8c03 423e c7d3 05be
000003b0: b5ff f03c a9bf c8bc 8dff 153e e43a fabd
000003c0: 6ae4 223d da0a 913d af88 64bd f47c 60bb
000003d0: 81de 943e 3b65 b63d f7fc 32bd f29a 1bbe
000003e0: 2ec5 8abe 3f6c 1e3e 8426 833d 67ca 5c3d
000003f0: 0da7 8c3c 9489 a43d 5f73 863e fdfc d53d

fc1.bias f4 [256]
-0.023487937 0.13716823 -0.06074255 0.24433924 -0.0018589369 -0.2539573 -0.0034185583 -0.1455737
0.12920848 0.16556033 -0.08232387 0.09108078 0.1822763 0.028375136 0.07173929 0.07505557
-0.052581906 -0.10936585 0.24364735 -0.10565422 0.13173278 0.07248206 0.12714262 0.05986367
0.09611934 0.018356055 0.14909577 -0.013334535 0.0010800825 -0.036076106 -0.018672096 -0.20863941
0.06551735 -0.12653266 -0.008495645 0.101790376 0.06288561 -0.015897352 -0.12960373 0.14719988
-0.091379546 -0.0719443 0.09690107 -0.14234829 -0.034823928 -0.12384479 0.054069433 0.024256116
0.18491286 -0.009005642 -0.07492342 0.055566825 -0.21782899 -0.05411606 -0.21406357 0.051419593
-0.052964084 -0.043978643 -0.12306963 -6.49274e-05 -0.039790504 0.2325418 -0.17837961 -0.08293158
-0.066651575 -0.10955598 -0.10271082 0.26957768 0.088574044 0.013991106 0.09461609 0.047389947
-0.09989592 -0.08568365 0.01881678 0.11464938 0.2477257 -0.04102322 0.1854695 -0.25964612
0.10537162 0.12920882 -0.10710426 0.13974373 0.09854105 -0.21649893 0.14433937 0.06708648
0.19987524 0.18238299 0.20239958 -0.0026073235 -0.09877666 -0.21942583 -0.15538347 0.14295052
0.18315008 -0.11828497 0.11766949 -0.0539427 -0.026044812 0.009168401 0.08798521 -0.15598111
-0.28272632 -0.19165516 -0.020879665 0.14212054 -0.01985487 -0.09054906 0.21620846 0.18615732
-0.1019156 0.026065106 -0.017526321 -0.13013539 0.05950786 -0.13382035 -0.17329155 -0.028745325
0.09400898 0.19734636 0.26208246 0.07580646 0.034922767 0.11278729 0.065015145 0.1252579
-0.09762495 0.30296537 -0.15367907 -0.20734164 0.16661422 0.17909116 0.028257474 -0.0115495585
-0.24345574 0.118431285 -0.19501029 -0.07258431 -0.028605247 -0.18346632 0.037193473 -0.01895588
0.12944119 -0.31637904 -0.12101944 -0.12834848 0.03280641 0.22729522 0.09705887 -0.006802141
-0.072797805 0.11537294 -0.01926806 0.12724325 0.10777159 -0.036767382 0.1187168 -0.08310774
0.055307247 -0.017882366 -0.21202815 -0.3027436 0.0076686004 -0.045506556 0.25936332 -0.0381086
-0.018197127 0.1491089 0.02911684 0.15841015 0.28280604 0.0666325 0.20962976 0.124677084
0.22840075 0.075060174 0.19740605 0.13040563 -0.047593545 0.016972747 -0.12658091 -0.04932255
-0.09516935 0.080881484 0.057723407 0.013660376 0.16092479 0.14067711 0.026915282 0.0099491365
-0.0092811845 0.045352507 0.22448489 0.007989853 -0.07383846 -0.054238237 -0.03780541 -0.051976856
0.14336014 0.081614815 0.033410665 -0.115664825 0.09461434 0.12738995 -0.0896396 0.09528031
-0.053055964 0.09925438 0.09910878 0.26217395 0.15786685 -0.079085425 -0.13065508 0.23637235
0.1740212 0.17191485 -0.060594484 -0.12560436 -0.09859702 -0.1123585 -0.13392669 -0.28031185
0.24341509 -0.020535052 -0.21043071 0.0057881316 -0.06303209 0.16098881 0.1292309 0.26654923
-0.13640544 -0.10878416 0.14921226 -0.014822914 0.039238043 -0.010691423 -0.026909996 -0.034939326
0.21766908 -0.12774062 0.029497312 0.16092497 0.17430234 0.15110175 0.028534232 -0.034980174
0.062934816 -0.15459734 0.20848425 0.07596522 0.0074787354 0.020241156 0.15097904 0.1531406
00000000: c669 c0bc d475 0c3e 2ecd 78bd 1134 7a3e
00000010: 92a7 f3ba b106 82be e409 60bb 4611 15be
00000020: 3a4f 043e a688 293e 6b99 a8bd 8f88 ba3d
00000030: a3a6 3a3e f972 e83c 0dec 923d bcb6 993d
00000040: 2060 57bd 34fb dfbd b17e 793e 3d61 d8bd
00000050: f5e4 063e 7971 943d ad31 023e 9c33 753d
00000060: 37da c43d 705f 963c 90ac 183e 1879 5abc
00000070: 8e91 8d3a 8ac4 13bd 39f6 98bc 92a5 55be
00000080: f62d 863d c791 01be 5131 0bbc 7977 d03d
00000090: 2cca 803d 2a3b 82bc d7b6 04be 91bb 163e
000000a0: 3325 bbbd 8857 93bd 1174 c63d c0c3 11be
000000b0: 89a3 0ebd 56a2 fdbd e977 5d3d c3b4 c63c
000000c0: cc59 3d3e 668c 13bc 7371 99bd 0a9a 633d
000000d0: 900e 5fbe cda8 5dbd 7b33 5bbe 5a9d 523d
000000e0: def0 58bd f322 34bd ee0b fcbd a229 88b8
000000f0: 5efb 22bd 701f 6e3e 25a9 36be 08d8 a9bd
00000100: 9f80 88bd e35e e0bd 0d5a d2bd 1606 8a3e
00000110: 4f66 b53d f43a 653c 15c6 c13d f61b 423d
00000120: 3b96 ccbd e97a afbd a625 9a3c 4bcd ea3d
00000130: ceab 7d3e f707 28bd b7eb 3d3e 56f0 84be
00000140: 13cd d73d 514f 043e 7a59 dbbd fb18 0f3e
00000150: e4cf c93d e5b1 5dbe b3cd 133e a364 893d
00000160: 18ac 4c3e 9bc2 3a3e d641 4f3e a1df 2abb
00000170: 6b4b cabd 2ab1 60be d81c 1fbe 9f61 123e
00000180: b28b 3b3e 643f f2bd b4fc f03d 05f3 5cbd
00000190: ee5b d5bc 1037 163c 9731 b43d 83b9 1fbe
000001a0: 81c1 90be 4041 44be d50b abbc 0c88 113e
000001b0: aea6 a2bc c971 b9bd c065 5d3e 06a0 3e3e
000001c0: 20b9 d0bd 7d86 d53c 5c93 8fbc 3642 05be
000001d0: 84be 733d 3408 09be 5773 31be 517b ebbc
000001e0: c887 c03d 2a15 4a3e ac2f 863e 6b40 9b3d
000001f0: 2d0b 0f3d 06fd e63d a926 853d 9b43 003e
00000200: 97ef c7bd 471e 9b3e 0c5e 1dbe 5e51 54be
00000210: eb9c 2a3e ac63 373e 387c e73c 5c3a 3dbc
00000220: 764c 79be 1a8c f23d c7b0 47be 15a7 94bd
00000230: 8d55 eabc 98de 3bbe 2f58 183d 5d49 9bbc
00000240: 3b8c 043e 6ffc a1be 0ad9 f7bd c96d 03be
00000250: 0460 063d 14c0 683e cdc6 c63d 7fe4 debb
00000260: 0417 95bd a648 ec3d 0dd8 9dbc 0e4c 023e
00000270: 5ab7 dc3d 6599 16bd cb21 f33d 6434 aabd
00000280: da89 623d 0a7e 92bc e81d 59be 3601 9bbe
00000290: e248 fb3b 1565 3abd 45cb 843e c317 1cbd
000002a0: 2412 95bc 01b0 183e 7086 ee3c 4536 223e
000002b0: f4cb 903e 9f76 883d 2fa9 563e b356 ff3d
000002c0: e3e1 693e 26b9 993d d024 4a3e 0e89 053e
000002d0: 73f1 42bd 6e0a 8b3c 6d9e 01be 7106 4abd
000002e0: 26e8 c2bd 31a5 a53d 616f 6c3d c5cf 5f3c
000002f0: 78c9 243e a90d 103e 707d dc3c b401 233c
00000300: 1c10 18bc 8dc3 393d 5edf 653e dfe7 023c
00000310: 9e38 97bd ea28 5ebd d8d9 1abd afe5 54bd
00000320: 00cd 123e ab25 a73d 9fd9 083d aee1 ecbd
00000330: 2ac5 c13d 8372 023e f794 b7bd 5322 c33d
00000340: 3651 59bd e145 cb3d 8bf9 ca3d aa3b 863e
00000350: d9a7 213e 8af7 a1bd 72ca 05be 980b 723e
00000360: 9d32 323e 720a 303e ec31 78bd 6e9e 00be
00000370: 3ced c9bd 371c e6bd 1424 09be 0985 8fbe
00000380: ce41 793e 2039 a8bc 267b 57be 5eaa bd3b
00000390: f816 81bd 40da 243e 1b55 043e 2479 883e
000003a0: dead 0bbe 3bca debd 19cb 183e cfdb 72bc
000003b0: 12b8 203d 142b 2fbc 5a72 dcbc 8a1c 0fbd
000003c0: a5e4 5e3e 70ce 02be 59a4 f13c 84c9 243e
000003d0: 507c 323e 6bba 1a3e 9fc0 e93c 5f47 0fbd
000003e0: f8e3 803d c44e 1ebe e57c 553e a793 9b3d
000003f0: 2e10 f53b c8d0 a53c 409a 1a3e e4d0 1c3e

fc2.weight f4 [128, 256]
0.057871595 0.13371867 -0.31663918 -0.031059291 0.09911394 0.010593733 -0.11599929 0.13177507
-0.08345963 0.18520185 -0.029007932 0.0734153 -0.06739625 0.013020127 -0.19552274 -0.16180366
-0.05755672 0.1281518 -0.119579054 -0.024465216 0.21844003 0.042788453 0.20180106 0.04251801
-0.082185976 -0.029915612 -0.1382635 0.05238152 -0.17467622 0.11005518 -0.0041876566 0.078819275
-0.057782505 -0.06743764 0.20814286 0.1430114 -0.2592274 -0.35609537 0.05993444 -0.08849083
-0.121691175 0.09887476 -0.031361718 -0.0059820805 -0.15658155 0.094519764 0.13238995 0.10034376
0.13881673 -0.09169109 -0.044147197 0.100841306 -0.12410718 0.09317021 0.035153992 0.17137854
-0.15804315 -0.17683816 0.16270824 -0.052526236 0.10244089 -0.03921237 0.27485874 -0.11190711
0.08365506 0.05819373 -0.13795303 0.08356236 0.041599594 0.15605451 0.10468057 0.14222449
0.009050786 0.13098826 -0.053038165 0.089743465 -0.5011705 0.09417873 0.07198089 0.07144632
0.03375736 0.06404037 0.07770532 0.043376308 -0.2391626 0.18227912 -0.08709703 0.056766413
-0.0019388619 0.038927812 0.037174463 0.06810049 -0.17923516 0.12490094 -0.06010254 -0.03786509
-0.17279017 -0.15878999 -0.021747563 -0.07047521 0.021707408 0.153611 0.0006104803 0.03914851
-0.030332547 0.09051262 -0.049475424 -0.043555643 0.19510262 -0.023513952 0.057268772 0.057249434
-0.053045113 -0.09646031 -0.033231225 0.04238163 0.15716983 0.15479235 -0.10661415 -0.0032082612
0.03236063 0.07008812 0.072807245 -0.10186157 -0.1061034 -0.2425706 0.056735516 0.14778964
0.08728713 0.20308492 -0.2524411 -0.13011685 0.029209333 -0.03461875 -0.076813065 0.03360509
-0.54696953 0.08025043 0.097679935 -0.084877305 -0.26129434 0.0488815 -0.07984647 0.04258221
0.059891738 -0.30153582 -0.021539366 -0.09463091 0.049415987 0.09764261 0.016553612 -0.11150027
-0.23161039 0.13722864 -0.017523874 0.08346507 -0.032522786 0.04268895 0.035351917 0.116998255
-0.13702561 0.15006763 -0.07711434 0.15136424 -0.09640149 -0.058176413 -0.09281416 -0.024222014
0.09566981 -0.011208735 -0.011824896 0.00073313137 -0.13711064 -0.1397511 0.01261643 -0.013062903
0.039521147 0.18086998 -0.063560724 0.017572049 -0.04705446 -0.055331554 0.010589405 -0.06258754
0.20143868 -0.13666253 -0.06289839 0.111116655 0.057610534 0.035801474 0.046772044 0.05705498
-0.06478526 0.033138555 -0.06056753 -0.0014635675 -0.19846627 0.040685464 0.101605065 -0.19780011
-0.0143140415 -0.28473258 0.26852596 0.048212588 0.08670115 -0.045050953 -0.15277353 -0.032443188
0.023699254 0.07412476 -0.009627358 -0.05151891 -0.08505415 -0.08200204 -0.015676929 0.18646218
0.09167142 0.20418589 -0.061022278 0.030004568 0.06398225 0.061033983 -0.117186606 -0.019607008
0.0077059404 0.022418382 -0.0679394 0.18115781 0.02450051 -0.095921494 0.046775427 0.02739588
0.1100603 0.08358029 0.06635009 0.022631297 0.11278734 -0.05808332 -0.013939705 -0.019618437
-0.08948553 -0.16429736 -0.27937385 -0.29789853 -0.10443104 0.19553113 -0.042986065 -0.098356776
-0.007013307 -0.061151125 0.023501815 0.14953652 -0.21541643 0.1215876 -0.10051124 0.0099096
00000000: c40a 6d3d 8ced 083e 881e a2be 0e70 febc
00000010: 40fc ca3d 5691 2d3c 0991 edbd 0bf0 063e
00000020: e2ec aabd 8ea5 3d3e 0ba2 edbc c35a 963d
00000030: 0c07 8abd 5f52 553c 1d37 48be dcaf 25be
00000040: 98c0 6bbd 3a3a 033e dde5 f4bd 476b c8bc
00000050: beae 5f3e f242 2f3d f0a4 4e3e 5d27 2e3d
00000060: 1f51 a8bd 9611 f5bc f294 0dbe 018e 563d
00000070: 53de 32be 9c64 e13d 9c38 89bb 006c a13d
00000080: 59ad 6cbd bf1c 8abd 6723 553e 9571 123e
00000090: 74b9 84be 2252 b6be d17d 753d ae3a b5bd
000000a0: 3939 f9bd da7e ca3d 2575 00bd 5405 c4bb
000000b0: ea56 20be 9493 c13d 3b91 073e 0781 cd3d
000000c0: f925 0e3e 8ac8 bbbd b1d3 34bd e385 ce3d
000000d0: e82b febd 06d0 be3d a2fd 0f3d db7d 2f3e
000000e0: 10d6 21be 1015 35be fd9c 263e c025 57bd
000000f0: 88cc d13d 269d 20bd 49ba 8c3e 8e2f e5bd
00000100: 5853 ab3d 8c5c 6e3d 8f43 0dbe be22 ab3d
00000110: 5664 2a3d c1cc 1f3e c462 d63d 4ca3 113e
00000120: bf49 143c c921 063e 8c3e 59bd 6ccb b73d
00000130: b64c 00bf c7e0 c03d b86a 933d 7352 923d
00000140: 2845 0a3d 9927 833d f823 9f3d 5bab 313d
00000150: 0ae7 74be 61a7 3a3e ed5f b2bd e683 683d
00000160: 6921 feba c572 1f3d 4044 183d 4578 8b3d
00000170: 6c89 37be 10cc ff3d 152e 76bd 6d18 1bbd
00000180: e8ef 30be d899 22be f227 b2bc 4f55 90bd
00000190: bcd3 b13c 344c 1d3e a408 203a 305a 203d
000001a0: f67b f8bc ae5e b93d bea6 4abd 6767 32bd
000001b0: fbc8 473e 55a0 c0bc a992 6a3d 627e 6a3d
000001c0: d545 59bd fc8c c5bd 771d 08bd 5c98 2d3d
000001d0: 21f1 203e e381 1e3e 8558 dabd b141 52bb
000001e0: 948c 043d 5c8a 8f3d f71b 953d cc9c d0bd
000001f0: bd4c d9bd 6d64 78be 8063 683d 2b56 173e
00000200: 98c3 b23d 7ef5 4f3e f63f 81be 5a3d 05be
00000210: 6948 ef3c 64cc 0dbd 2b50 9dbd 7ea5 093d
00000220: 3206 0cbf 565a a43d 6b0c c83d 27d4 adbd
00000230: 5fc8 85be f837 483d 8c86 a3bd af6a 2e3d
00000240: 0a51 753d e762 9abe 5373 b0bc dacd c1bd
00000250: 6b68 4a3d d9f8 c73d 719b 873c 415a e4bd
00000260: 462b 6dbe aa85 0c3e 3a8e 8fbc bcef aa3d
00000270: 9d36 05bd 9cda 2e3d 2ccd 103d c89c ef3d
00000280: 7150 0cbe 54ab 193e 20ee 9dbd 3aff 1a3e
00000290: 256e c5bd 644a 6ebd 5a15 bebd 3f6d c6bc
000002a0: 89ee c33d d8a4 37bc 35bd 41bc 9d2f 403a
000002b0: bb66 0cbe ea1a 0fbe 25b5 4e3c c905 56bc
000002c0: ede0 213d fb35 393e 202c 82bd 42f3 8f3c
000002d0: 2dbc 40bd 57a3 62bd 2f7f 2d3c e52d 80bd
000002e0: f145 4e3e 43f1 0bbe dfd0 80bd 2191 e33d
000002f0: 06f9 6b3d 91a4 123d 0b94 3f3d 7cb2 693d
00000300: 22ae 84bd 4bbc 073d a915 78bd 2dd5 bfba
00000310: be3a 4bbe cda5 263d 5116 d03d 1d8c 4abe
00000320: 7185 6abc 78c8 91be 3c7c 893e 907a 453d
00000330: 5f90 b13d 5987 38bd aa70 1cbe 26e3 04bd
00000340: f024 c23c b9ce 973d 11bc 1dbc 7e05 53bd
00000350: df30 aebd b0f0 a7bd e76c 80bc f1ef 3e3e
00000360: 3abe bb3d 1b16 513e 7ff2 79bd 24cc f53c
00000370: 2009 833d c5fe 793d 88ff efbd e09e a0bc
00000380: 1d82 fc3b c1a6 b73c d023 8bbd 6f81 393e
00000390: 4bb5 c83c 7d72 c4bd 9797 3f3d 536d e03c
000003a0: 4b67 e13d 252c ab3d 8ee2 873d 4565 b93c
000003b0: 0dfd e63d c6e8 6dbd 5c63 64bc d8b6 a0bc
000003c0: 3144 b7bd 913d 28be 170a 8fbe 2886 98be
000003d0: f1df d5bd 5039 483e 2812 30bd 476f c9bd
000003e0: e2cf e5bb 9a79 7abd e186 c03c 1a20 193e
000003f0: 2096 5cbe eb02 f93d d6d8 cdbd e05b 223c

fc2.bias f4 [128]
0.051034387 -0.024553573 0.0030215702 0.0044666016 -0.08093519 0.030715432 -0.019901467 -0.008091799
-0.037353333 0.027039574 0.0712369 0.0032022859 -0.012386028 0.03856481 -0.060899567 0.07836745
0.00039248992 0.08852057 -0.004358517 -0.09432951 -0.020676969 -0.02038311 -0.05664947 0.030530697
-0.0013919972 -0.040717714 -0.047237087 0.03388567 -0.0437237 0.04932831 -0.014660274 -0.04275924
-0.13594863 -0.02741168 -0.036492057 -0.023011293 -0.011416626 0.03602816 0.0673811 -0.029508471
0.10214726 -0.07011764 0.014188623 -0.047193315 -0.01175222 0.05323679 0.022334324 -0.04284688
0.0052159484 0.058716595 0.057911947 -0.014846173 -0.07842126 -0.055618215 -0.037077136 0.10482782
0.05010769 0.016513025 -0.008691303 -0.01965753 0.00969592 0.029771877 0.045143884 0.032220103
-0.053585008 -0.025487253 -0.01126647 0.04467524 0.061241724 0.01413959 -0.07702196 0.057816334
0.0034241152 0.05118563 -0.028095465 0.0051699397 -0.025911262 0.10659705 0.06859642 0.09697179
-0.048164725 0.040060677 0.087145545 0.046743993 -0.029119857 -0.09579671 0.04857416 0.06927818
0.0333301 0.01949739 0.078409076 0.0151716545 0.013075219 0.023219671 -0.05239388 -0.02316329
-0.10263776 -0.013042823 -0.075896606 -0.08910109 -0.077962294 0.043240167 0.03615291 0.03204631
-0.0015404114 0.017044315 -0.009365178 0.0144641185 0.026020788 -0.0077437637 -0.0560505 -0.0048712175
0.07160158 0.025429528 0.099311635 -0.03791442 0.103563316 0.052517217 0.074281394 0.029826256
-0.044087037 0.028152946 0.041706365 0.02724968 0.027163005 -0.019674692 -0.041126236 0.013600154
00000000: 6f09 513d 9324 c9bc 8905 463b 925c 923b
00000010: 59c1 a5bd ee9e fb3c 6708 a3bc 7793 04bc
00000020: cfff 18bd 1982 dd3c a7e4 913d 71dd 513b
00000030: c4ee 4abc 22f6 1d3d d371 79bd 1d7f a03d
00000040: 1bc7 cd39 464a b53d e4d1 8ebb d52f c1bd
00000050: bf62 a9bc 7bfa a6bc 4609 68bd 831b fa3c
00000060: ad73 b6ba 9ec7 26bd ad7b 41bd b3cb 0a3d
00000070: 9f17 33bd 7b0c 4a3d a531 70bc 5024 2fbd
00000080: 1e36 0bbe 768e e0bc b278 15bd 2e82 bcbc
00000090: cd0c 3bbc 4492 133d 1aff 893d c0bb f1bc
000000a0: 9532 d13d d699 8fbd 6677 683c c74d 41bd
000000b0: 628c 40bc d20e 5a3d 79f6 b63c 3680 2fbd
000000c0: 8cea aa3b d080 703d 1435 6d3d 5d3d 73bc
000000d0: 539b a0bd edcf 63bd 32de 17bd f8af d63d
000000e0: b93d 4d3d 5346 873c f865 0ebc d408 a1bc
000000f0: a3db 1e3c 27e4 f33c cbe8 383d 3af9 033d
00000100: f47b 5bbd a5ca d0bc 0097 38bc 62fd 363d
00000110: 9ad8 7a3d bda9 673c b0bd 9dbd d2d0 6c3d
00000120: 1f67 603b 06a8 513d 7628 e6bc 9968 a93b
00000130: db43 d4bc 8e4f da3d 487c 8c3d 2599 c63d
00000140: 6048 45bd aa16 243d 5d79 b23d a176 3f3d
00000150: c48c eebc 1131 c4bd b3f5 463d b8e1 8d3d
00000160: 2585 083d feb8 9f3c f094 a03d 8892 783c
00000170: 7139 563c 2e37 be3c f79a 56bd f1c0 bdbc
00000180: bf33 d2bd 91b1 55bc ae6f 9bbd a27a b6bd
00000190: b2aa 9fbd 9a1c 313d 1315 143d fe42 033d
000001a0: a1e7 c9ba 85a0 8b3c 6770 19bc e9fa 6c3c
000001b0: 8c29 d53c 66bf fdbb 3695 65bd bc9e 9fbb
000001c0: d9a3 923d 9651 d03c e663 cb3d 274c 1bbd
000001d0: 0119 d43d 4b1c 573d d820 983d 3156 f43c
000001e0: 9c94 34bd 02a1 e63c 4bd4 2a3d b93a df3c
000001f0: f384 de3c d22c a1bc fc73 28bd 2ed3 5e3c

fc3.weight f4 [4, 128]
0.402519 -0.069077946 -0.18353222 0.062174622 -0.19096722 -0.05031028 0.37066844 0.13287051
-0.11610554 -0.15097079 0.19155404 0.33623135 0.20603049 0.07717956 -0.122373804 0.41062564
0.12159171 -0.31763765 0.7636369 -0.056634832 -0.07853179 0.18248183 -0.34564784 -0.089075714
-0.16759703 0.35557863 -0.11210347 -0.24609227 -0.2540568 0.29131314 -0.15036716 0.24434705
-0.039120167 0.30249774 0.42126384 0.016880576 -0.10987171 -0.12835842 -0.28023145 0.057385385
-0.13240503 -0.59932125 -0.034385514 0.03956328 0.29849955 -0.014796318 0.17240448 -0.05167451
0.04096263 0.26765412 -0.26184112 0.49776754 0.039051116 -0.14047265 0.21240412 -0.10602916
-0.022123959 -0.45784104 -0.3027688 -0.4005455 -0.17497022 0.26050434 0.0755196 0.10854708
0.27769178 -0.06362309 0.22294647 -0.10349693 0.23093726 0.4506721 -0.12620327 -0.102575354
0.5335046 0.10607524 0.45739898 -0.21118744 0.44763252 0.00059049396 0.019595753 -0.13621801
0.026154172 0.020212773 0.05331658 -0.36105722 -0.40940362 0.67124814 0.29300138 0.46901235
-0.10809747 -0.2501774 0.44146913 0.0485806 -0.25760216 -0.07281341 0.10432095 0.17912836
0.48192784 0.04452618 -0.5420099 0.56315243 -0.120070316 -0.43039748 -0.059894335 -0.19258167
-0.30603006 -0.09727209 -0.08208713 0.05041609 0.15103924 0.1438638 -0.10361021 0.2059616
-0.16525792 0.25819847 -0.109576754 0.32572198 0.16670081 -0.1583018 0.07029243 -0.34775683
-0.014982264 0.3003318 -0.3742119 -0.087985806 -0.17190017 -0.1361633 0.23343389 -0.45357978
-0.127185 -0.038401246 -0.4806438 -0.08678043 0.22900316 0.017975848 -0.22196355 -0.17970842
0.24741033 -0.2336793 -0.07259851 -0.37292704 -0.14186895 -0.19925992 0.2775895 0.062389906
-0.45094836 0.054075588 -0.009424763 0.64321434 0.19265564 -0.16931252 0.25171548 -0.03725992
-0.1873431 0.030138511 0.045503687 0.3849115 -0.020053295 -0.2151739 -0.17646328 0.30551335
0.20284806 0.07867219 -0.1858602 0.38570622 0.01327136 -0.039163172 -0.14546993 -0.13402115
-0.08103575 0.3421864 -0.18025503 -0.14355983 0.0028228704 -0.24755 -0.1996315 0.24020371
0.06295377 -0.39583662 -0.2056885 0.2651793 -0.039465513 0.26814583 0.4166426 -0.22449031
-0.086224385 -0.13686895 0.34192026 0.4687496 -0.10368283 0.2205788 0.6194003 0.0043552127
0.413342 0.19874448 -0.03677646 -0.1843628 -0.23623863 0.002437651 0.25853533 -0.14150442
0.5209297 0.26110998 0.31512642 -0.033351805 0.2478671 0.5995752 -0.11510081 -0.05744687
0.26175213 -0.06366175 -0.24145962 -0.08856171 0.27010617 0.5433203 0.11326117 0.02700461
0.33462417 -0.07200707 -0.04971521 0.19647968 0.06686136 -0.080932364 -0.053999536 -0.11104032
-0.014188291 0.28655723 0.10215054 0.00059927657 -0.047841188 0.44263396 -0.19416064 0.0996767
-0.037210044 -0.2713069 0.27218956 0.24449405 0.32690343 0.25954664 -0.070587404 -0.03537397
-0.15443842 -0.2813611 -0.08187727 -0.35645914 -0.1059331 -0.11476415 -0.019134548 0.3646089
-0.020980781 -0.1353344 -0.22508015 -0.038378112 -0.55242646 -0.12277665 0.24580523 -0.02215847
00000000: f816 ce3e bd78 8dbd dfef 3bbe d1aa 7e3d
00000010: e98c 43be 2712 4ebd 41c8 bd3e 350f 083e
00000020: bec8 edbd 1698 1abe be26 443e 8426 ac3e
00000030: a8f9 523e 5110 9e3d 1e9f fabd 863d d23e
00000040: 1305 f93d 67a1 a2be b57d 433f edf9 67bd
00000050: 46d5 a0bd 84dc 3a3e c1f8 b0be 546d b6bd
00000060: 8e9e 2bbe 670e b63e 8196 e5bd 9dff 7bbe
00000070: bc13 82be ff26 953e d9f9 19be 1d36 7a3e
00000080: 783c 20bd fce0 9a3e e5af d73e 2249 8a3c
00000090: 6b04 e1bd 6470 03be 7f7a 8fbe f00c 6b3d
000000a0: 2f95 07be 1e6d 19bf d3d7 0cbd 1b0d 223d
000000b0: efd4 983e 416c 72bc cd8a 303e a7a8 53bd
000000c0: 6ec8 273d f609 893e 0a10 86be 63db fe3e
000000d0: 10f4 1f3d 10d8 0fbe 7780 593e d125 d9bd
000000e0: 4e3d b5bc 246a eabe 8304 9bbe 4d14 cdbe
000000f0: 652b 33be d360 853e 05aa 9a3d ee4d de3d
00000100: 9e2d 8e3e d34c 82bd 144c 643e 33f6 d3bd
00000110: d17a 6c3e 7ebe e63e 6e3b 01be 0713 d2bd
00000120: c293 083f fa3d d93d 3330 ea3e 8541 58be
00000130: 1730 e53e 61cb 1a3a 4687 a03c bc7c 0bbe
00000140: 4641 d63c 4295 a53c 7c62 5a3d 7edc b8be
00000150: 5a9d d1be ebd6 2b3f 4704 963e 6322 f03e
00000160: 3562 ddbd 4117 80be 3e08 e23e 74fc 463d
00000170: 6ee4 83be 321f 95bd 39a6 d53d 6d6d 373e
00000180: 3fbf f63e 1561 363d 29c1 0abf c22a 103f
00000190: 6de7 f5bd 0f5d dcbe c353 75bd 2134 45be
000001a0: f9af 9cbe 9736 c7bd 4c1d a8bd 1a81 4e3d
000001b0: 08aa 1a3e 0851 133e 9731 d4bd 99e7 523e
000001c0: 5f39 29be 9732 843e c769 e0bd 08c5 a63e
000001d0: 9eb3 2a3e de19 22be 7af5 8f3d 2f0d b2be
000001e0: 2b78 75bc 17c5 993e b498 bfbe e731 b4bd
000001f0: 9906 30be 646e 0bbe 4b09 6f3e 9c3b e8be
00000200: c93c 02be a04a 1dbd f216 f6be f0b9 b1bd
00000210: ce7f 6a3e 1642 933c 6a4a 63be 7c05 38be
00000220: 2259 7d3e a049 6fbe 87ae 94bd 4bf0 bebe
00000230: 1846 11be cb0a 4cbe 3620 8e3e 8f8c 7f3d
00000240: b4e2 e6be 5d7e 5d3d 526a 1abc b2a9 243f
00000250: 8547 453e 4360 2dbe dae0 803e dc9d 18bd
00000260: dfd6 3fbe 0ae5 f63c 1362 3a3d 1f13 c53e
00000270: cf46 a4bc 8c56 5cbe cab2 34be 3f6c 9c3e
00000280: 67b7 4f3e e31e a13d 2352 3ebe 497b c53e
00000290: 1e70 593c 9069 20bd 12f6 14be d73c 09be
000002a0: 12f6 a5bd 0e33 af3e c694 38be 5901 13be
000002b0: e8ff 383b bf7d 7dbe 336c 4cbe f6f7 753e
000002c0: e8ed 803d 19ab cabe 02a0 52be 95c5 873e
000002d0: 97a6 21bd 694a 893e 2e52 d53e cae0 65be
000002e0: 6996 b0bd 6027 0cbe 2c10 af3e f3ff ef3e
000002f0: aa57 d4bd 69df 613e 0591 1e3f 2cb6 8e3b
00000300: 90a1 d33e ac83 4b3e eaa2 16bd 9ac9 3cbe
00000310: 8ae8 71be ffc0 1f3b be5e 843e 89e6 10be
00000320: a65b 053f 35b0 853e 4058 a13e e79b 08bd
00000330: e0d0 7d3e c37d 193f f9b9 ebbd 694d 6bbd
00000340: 6004 863e 1761 82bd 3141 77be d85f b5bd
00000350: 5b4b 8a3e 0a17 0b3f 79f5 e73d c638 dd3c
00000360: dc53 ab3e 7178 93bd 2da2 4bbd f831 493e
00000370: 9cee 883d debf a5bd 9e2e 5dbd 1b69 e3bd
00000380: 0176 68bc a1b7 923e 4d34 d13d c518 1d3a
00000390: 1ff5 43bd eba0 e23e 0cd2 46be 4c23 cc3d
000003a0: 8f69 18bd bde8 8abe 6e5c 8b3e a65c 7a3e
000003b0: e35f a73e 4ce3 843e 2190 90bd 4ce4 10bd
000003c0: 1b25 1ebe 900e 90be 45af a7bd d081 b6be
000003d0: 74f3 d8bd 7709 ebbd 0ec0 9cbc 05ae ba3e
000003e0: e3df abbc 1a95 0abe 697b 66be 5e32 1dbd
000003f0: d26b 0dbf 5372 fbbd 5eb4 7b3e ae85 b5bc

fc3.bias f4 [4]
0.028822294 -0.10869143 0.03244877 -0.010285801
00000000: bb1c ec3c 9d99 debd 00e9 043d c785 28bc
