checkpoint_multi.pth (torch_old, 169394 bytes, 6 tensors)

fc1.weight f4 [256, 33]
00000000: d1d3 17be 5468 533d 6f6c 83bd 2a45 ea3d
00000010: 2ac7 3ebd 9b8e 00be 0e04 1bbd d3f6 b93d
00000020: 0e62 70be b351 bc3d 1e71 cd3b cf93 b1bd
00000030: 348b e7bd 8525 8f3e 24ad 39bb e200 f53c
00000040: abaf e2bd a6d8 a4bd 0a1b d6bd c8bc b83b
00000050: 9faa 8ebd cd07 06be 5106 503d 8eef 063e
00000060: 5a8a efbc 2da2 3d3e 1055 c13d 7766 38bd
00000070: 402b 8cbc 702a 013d df15 a03d 7400 e93c
00000080: f66e ffbe ce7e f7bd 393e ea3d 4613 933d
00000090: 681a 003c 33f6 0cbe 072b 36be da0a 1cbb
000000a0: de31 f2bc 1f5a 903e 9b1c 703e 4d5c fa3c
000000b0: a0db 013d 5549 5d3d 5bd0 f93d 6363 a73d
000000c0: 7ee6 42be 2c75 e9bd c30e 24be ea93 b93b
000000d0: dd97 a3bd 964d 2dbb ed5e 753d b448 c13d
000000e0: ff62 223e 8b8e 083d 2cd9 8bbd 7cce 11be
000000f0: eedb 133e ba45 873e ca5b 71bd 64ef 07be
00000100: 1a4e 543d 58fb 723f 3d94 e1bd fc3c 803e
00000110: b4f1 05be ced4 a9be c0c8 cfbd bef1 40bd
00000120: cf16 d4bc 2bb5 d53d 7d48 abbe c2d8 613d
00000130: 6701 a4bd 779c fe3d b1b2 2b3e bf70 be3d
00000140: 0304 d33d 78ac 6f3e b068 1ebd 2b94 53bb
00000150: cbfe 19be 07bc b2bd a4c7 b6bd 6b3f abbd
00000160: 0138 583d 440e 62bd f291 a13d e276 f43d
00000170: c738 cdbd 95c8 8d3d 04e8 9e3b 2841 063d
00000180: a2ab 06be 7ca1 12bd d419 83bf d46d 25be
00000190: 74e9 8c3e 033e 30be d85d 4cbd 8324 b4bd
000001a0: bb4e 15be f04a 4dbe bff2 063e 2078 77be
000001b0: 8267 5bbe 4373 6bbb 942c 82bc df2b e3bb
000001c0: 19fd eabd 0217 41be bd08 29bd f830 ebbd
000001d0: 98a9 32bd ad17 6cbb ba7e 30bc 8085 453e
000001e0: 0c76 cf3c f7f0 b8bd 5e2b 9ebd 91ac 7dbc
000001f0: fe11 563d 52f5 4e3e 3450 5d3e 6e72 bf3d
00000200: 8c51 63bd 5803 3fbe 38cd 34bd 12e4 0cbf
00000210: 9fbe c5b9 95c6 eabd 9c82 d4bd b46d f93d
00000220: 29e6 023e 7228 193d eb0d 7dbc 7a53 13be
00000230: a8d5 2a3d a01c 7dbc 2073 cf3c 4453 97ba
00000240: f4ac 223e 8fce 373c 55ae 203e 8e06 a63d
00000250: 7574 2fbe 1b34 103e 3839 b63d 3b8d 133d
00000260: e4d4 cdbd bcf1 96be 741b 51bd 01e1 1fbe
00000270: d75b 693d 80e9 633e 2732 d43c 848b 8dbd
00000280: e472 11bd b84f 373c 8264 a53d 28a8 743d
00000290: dd55 833d 2932 28be 1201 61bd 04e7 12be
000002a0: fc15 ba3e e513 37be 4502 cf3d 0bb4 ad3b
000002b0: 63e8 db3d b5dc a03e 6284 eebd 5068 823d
000002c0: a0df c43d 35f3 3d3c 5028 cc3d 8559 8fbc
000002d0: 8831 373e dd27 10bd e925 813b 3c4f 3cbd
000002e0: 25d7 1d3d 1bf5 06bd 6c4f f43d 5ec6 35bd
000002f0: c266 08be 6071 423b c93c 9fbc 5481 2abd
00000300: 5219 46bd f2e8 75bd e88c bf3c f485 203d
00000310: b44c 823c 5b26 0b3f af94 6b3e baa0 963d
00000320: 2c41 3f3d 8ce4 d8bd 68d5 9a3e b5a3 ffbd
00000330: c20d e63d 3a4e 37bd 49d4 b1be 471b 17be
00000340: f8b1 203d 8782 113d dac7 273d 7071 5ebd
00000350: 2376 adbd 50bb b03e f842 0b3e b2da 513b
00000360: 726e 533e 538e aa3c 4c3f ebbd 1ce7 0cbd
00000370: 5fb0 8e3c d3e8 d7bd 8ecf 8d3d 058b 323e
00000380: 4e23 503d 9900 c13d 4eea 45be 90ba 223d
00000390: 9e93 1abe 3880 463c 5157 083f 886d b73d
000003a0: 6421 4e3b 073e 8dbd bacd 74bd 6730 2e3e
000003b0: c409 603e 4742 dc3d a337 eabc eac5 a5bd
000003c0: 05ee 913b 04fd 83ba 807e 963d 5439 c5bd
000003d0: a320 07be b73d 763e 6998 a73d a758 833c
000003e0: fe6c c4b8 2e34 a2bd 5ac1 453d 41cf 9bbd
000003f0: 8ee4 b7bc 4fdf 43bc 2263 b5bd d3f7 633d
-0.14826895 0.051613167 -0.064171664 0.11438973 -0.046576656 -0.125544 -0.037845664 0.09080281
-0.23474905 0.091952704 0.006269588 -0.086707704 -0.11305848 0.27958313 -0.002833196 0.029907648
-0.11068662 -0.08049135 -0.10454376 0.005637739 -0.06966137 -0.13088913 0.050787274 0.1317732
-0.029240776 0.18518896 0.094400525 -0.045019593 -0.017110467 0.031534612 0.078166716 0.028442599
-0.49889344 -0.12084733 0.11437649 0.071814105 0.007818796 -0.13765793 -0.17789851 -0.002381018
-0.029564794 0.28193757 0.23448412 0.03056159 0.03170359 0.054025013 0.12197944 0.081732534
-0.19033238 -0.11399302 -0.16021256 0.0056633847 -0.0798795 -0.002644395 0.05990498 0.09437695
0.15858077 0.033339065 -0.068285316 -0.14238924 0.14439365 0.26420385 -0.058925427 -0.13274914
0.051832296 0.9491477 -0.11014602 0.25046527 -0.13080484 -0.3317017 -0.10145712 -0.047105543
-0.025889782 0.10434946 -0.33453742 0.055138357 -0.0800808 0.12432187 0.16767384 0.09298848
0.103034995 0.23405635 -0.038674057 -0.003228436 -0.15038602 -0.087272696 -0.08924797 -0.083617054
0.052787784 -0.055189386 0.07889165 0.119367376 -0.10020595 0.069230236 0.0048494358 0.03277698
-0.1315141 -0.035798535 -1.0242257 -0.16155177 0.2752186 -0.17211156 -0.049894184 -0.087960266
-0.14580815 -0.20048118 0.13178538 -0.24166918 -0.21426204 -0.0035926856 -0.015890397 -0.00693272
-0.11474056 -0.18856433 -0.0412681 -0.114839494 -0.04361877 -0.0036024854 -0.0107724015 0.19289207
0.025324844 -0.090303354 -0.077231154 -0.015483038 0.052263252 0.2021077 0.21612626 0.093479976
-0.05549769 -0.1865362 -0.044141024 -0.5503551 -0.00037716792 -0.11463658 -0.10376474 0.12179127
0.12783112 0.037392087 -0.015445213 -0.14387313 0.041707665 -0.015448719 0.02532345 -0.0011545201
0.15886289 0.011218681 0.15691502 0.08106719 -0.17134269 0.14082377 0.08897632 0.03602336
-0.10050371 -0.29481304 -0.051051572 -0.15613176 0.05697235 0.22257042 0.02590282 -0.06911376
-0.03550996 0.01118844 0.08075811 0.05973068 0.064128615 -0.16425385 -0.05493266 -0.14345938
0.36344898 -0.17878683 0.10107855 0.005301004 0.107376836 0.31418386 -0.11646344 0.06367552
0.096129656 0.01159363 0.099686265 -0.01749874 0.17889988 -0.035194267 0.003941287 -0.045974
0.038535256 -0.032948595 0.11929211 -0.04437863 -0.13320449 0.0029669628 -0.019438164 -0.041627243
-0.04836399 -0.060036607 0.023382619 0.039190248 0.015905716 0.543554 0.23005937 0.07354875
0.046693012 -0.10590467 0.3024094 -0.124823965 0.11233093 -0.044752337 -0.34732273 -0.14756499
0.039232224 0.03552487 0.040962078 -0.0543074 -0.084697984 0.34517908 0.13599765 0.0032021222
0.206476 0.020819819 -0.11486682 -0.03440009 0.017418085 -0.105424546 0.069243535 0.17435844
0.05081492 0.09423942 -0.19327661 0.0397287 -0.15095374 0.012115531 0.53258234 0.08956438
0.0031453008 -0.068965964 -0.05976651 0.17010652 0.21878725 0.10754829 -0.028590983 -0.0809439
0.004453423 -0.0010069911 0.07348347 -0.09630075 -0.13196044 0.2404698 0.08183367 0.016033484
-9.36631e-05 -0.07920109 0.048280098 -0.0760789 -0.02244785 -0.011955096 -0.08856799 0.055656265

fc1.bias f4 [256]
00000000: 913b 283e f377 2b3d 8291 fbbd e25e 9fbd
00000010: 95cf d73c 3436 fabd 9eb8 83be b712 fd3c
00000020: 005b d53d eeaa 7f3e 1ae1 73bd 812a 9bbe
00000030: a58d 0ebd b136 c9bd a08f b3bc 12de 08bd
00000040: cbff 18be cce8 fb3d 48f1 8d3e d21f 2abe
00000050: 2dc0 673d 30a1 b33c 07f9 11be ce7a 2bbe
00000060: a67e 223c 5948 96bc 70a1 81bc 5834 f2bd
00000070: 760e ccbd 1e62 a6bc ead5 2fbe b548 143c
00000080: 52a1 58be ea9e d33d 45ae 3a3e 0a83 0d3e
00000090: c8b5 5c3e 15a2 373e 0b38 06be ab10 963d
000000a0: ddcb 85be feab 503d f43e 073e 7b4e babd
000000b0: b46f 1cbc 7c26 a1be e437 0e3b adf0 a73c
000000c0: e4c9 1a3e 42ac 52be 6ac8 abbe ee0d 73b8
000000d0: 11d4 26be 0e47 aabd fe4a febd de37 943d
000000e0: 994a 98bd 9933 ab3d 6388 21bd 3b4a 3d3d
000000f0: f669 cebb 12d8 26bc 7fbe 1bbe d1c1 83bc
00000100: e509 62be 87cb 04be 626f 0f3e 6710 abba
00000110: 7529 8bbd 382b a23d 164a 1c3e 976e 523e
00000120: 6826 87bd d601 01bd 9be5 c23c 5706 6d39
00000130: cd92 113e 6bf4 0abe 880d a03b 19ce 97be
00000140: faf8 263d 42a7 b43b 7bd7 65be 8b59 113c
00000150: 72b4 76bd 1057 5abe 082c 143e 1294 9dbc
00000160: 6a63 23bd 1fec d43d 8827 073e b250 6a3c
00000170: 0143 56be 1564 47be 1711 c4bd 20b4 8e3d
00000180: 7469 4f3e 1e1c bfbe bfe9 233d 682c 00be
00000190: 01e5 05be 5d80 54bd 3117 03bd cd48 1abe
000001a0: a4e4 e5bc c4b4 773d dafc 61be 4e28 9e3d
000001b0: e74a 43be 7018 10be fef0 b73d fc17 593e
000001c0: 3dff 9fbe f09b debb 8e8e 883d 4502 d9be
000001d0: a1ef 233d 973d 2dbe 48ae 6f3d 2f66 68bd
000001e0: d8ef c13d 46a2 673d f560 143e de95 993d
000001f0: 15a7 82bd 466b 8cbd 9038 babd 6252 073c
00000200: 5be9 e43c 11b1 c33d 83f5 4bbd 7e63 64be
00000210: e376 18bc 7cc8 6a3e cbb1 2bbe 7f98 30be
00000220: 90ec f4bd 6f31 c83d 1303 2fbe c408 a13d
00000230: 596c 4b3e dfee bebd bb9a 34be 5625 82be
00000240: 3ade 933e 31c7 59be 034a 2e3e 6948 48bd
00000250: cbf8 b03d 130c 113e bde2 84bd 2787 633e
00000260: b8e4 0f3e 09af 633c 07c5 093e 36dc 2dbe
00000270: 115f 8b3e 40a2 bd3d 9854 203c 7cec 43be
00000280: 66aa 0c3e 9223 67be 4078 94bd 7ddd b8be
00000290: 53e9 84bd 844e 39bd dedd 253e b051 b7bc
000002a0: 19ca 1bbd ffdf c63d 8a49 173e df9f 943d
000002b0: aac5 5a3e db47 363e 3fbe b43c cefd 943e
000002c0: 0379 5a3e 83c1 92bd bd63 563a 770e 0fbe
000002d0: 90a1 24bc 740e 903d 93b8 2cbe 639c a0bd
000002e0: 6f0d c8bb f867 d8bc 0215 90bb 3752 d53d
000002f0: 9cd3 21bd b246 d83d 95c9 e9bd 1d26 523d
00000300: 7d0c bdbc 95c0 fe3d 9b9b 143e 56df aebd
00000310: 6cee b2bd 324c 3bbe 33c2 133d 0891 d73c
00000320: f6a3 ccbd 466d c13d 3ed9 073e 1682 3cbe
00000330: 46f4 de3d 7cf4 1d3d febc 88bc 1d22 5d3c
00000340: fc2e 57be 8443 2cbd 729b 5e3d 9b0d 91bd
00000350: db5d 0d3e ac2d f53d 76ef 9b3d 1ec4 143d
00000360: 771e 103d 9c25 fabe 8355 9ebb dede 2ebe
00000370: f35d 033e ddc3 26be 07fc e7bd dc4b 24be
00000380: ead0 e6bd 74f8 23be 1513 15be 8af1 c23d
00000390: 1bc1 7bbd d4e6 b73d e802 27bd 8538 4c3d
000003a0: c794 7fbe 0492 27be 8b8b 0e3e 36b0 84be
000003b0: 6e5f 0f3d a11b 37bd e964 0ebe 90e2 2dbe
000003c0: 2c35 8dbe a8f1 1fbd 2932 6a3e 20f8 96bd
000003d0: 5863 fd3d b5f0 f63d c8a1 0fbe af82 0a3e
000003e0: b6fc 303c fa5a 56be 3492 b93d 81c6 46bd
000003f0: f6cc 663e 508c 78bc cc4e e9bc 77d0 4c3e
0.16428973 0.04186244 -0.12283613 -0.07781769 0.0263441 -0.1221737 -0.2572679 0.030892713
0.104177475 0.24967548 -0.059540845 -0.30305865 -0.03480305 -0.09824885 -0.021919072 -0.033414908
-0.14941327 0.12300262 0.27723145 -0.16613701 0.056579757 0.021927446 -0.14255153 -0.16746065
0.009917891 -0.018345045 -0.01582405 -0.1182639 -0.09963696 -0.020310458 -0.17171445 0.009050538
-0.21155289 0.10333045 0.18230541 0.13819519 0.21553719 0.17932923 -0.13107316 0.07327398
-0.26132098 0.050945275 0.13207608 -0.09097 -0.0095481165 -0.31474674 0.0021700794 0.020500505
0.15116078 -0.20573524 -0.3355134 -5.7948688e-05 -0.16291834 -0.08314334 -0.124166474 0.07237218
-0.074361034 0.08359451 -0.03943671 0.04621337 -0.0062992526 -0.010183351 -0.15209387 -0.01608363
-0.22074087 -0.12968265 0.14007333 -0.0013051153 -0.06795017 0.079183996 0.15262637 0.20549999
-0.06599122 -0.03149589 0.023791125 0.00022604443 0.14216156 -0.135698 0.0048844256 -0.29649428
0.040764786 0.0055131027 -0.2244548 0.008871446 -0.06023068 -0.21322274 0.14469922 -0.019235644
-0.03988973 0.10396599 0.13198674 0.014301466 -0.20923997 -0.19471772 -0.09573572 0.0696795
0.20255071 -0.3732614 0.04001784 -0.1251694 -0.1307564 -0.05188023 -0.03200454 -0.15066834
-0.028063126 0.060475126 -0.22069111 0.07722531 -0.19071542 -0.14071822 0.089815125 0.21200556
-0.3124942 -0.0067934915 0.06667815 -0.42384544 0.04002345 -0.16918026 0.058515817 -0.056738075
0.09469575 0.05655124 0.14490111 0.07499288 -0.063795246 -0.06856398 -0.0909282 0.008259388
0.027943304 0.09555257 -0.049794685 -0.22303578 -0.009305689 0.22928041 -0.16767041 -0.17245673
-0.11959183 0.09775054 -0.17091016 0.07863 0.1986555 -0.09322905 -0.1763715 -0.2541911
0.28880483 -0.21267392 0.1702042 -0.04889718 0.086412035 0.14164762 -0.064885594 0.22219525
0.14052093 0.013896712 0.13454066 -0.16978535 0.27220967 0.09259462 0.009785794 -0.1913318
0.13736877 -0.22572163 -0.07249498 -0.36106482 -0.064898156 -0.045240894 0.16197917 -0.022377819
-0.038034532 0.097106926 0.14774147 0.072570555 0.21364465 0.17800848 0.022063373 0.29099888
0.21335225 -0.07165816 0.00081783143 -0.13970362 -0.010048285 0.07034007 -0.16867284 -0.078423284
-0.006105117 -0.026416764 -0.0043970356 0.10416072 -0.039508447 0.10560359 -0.11415402 0.05130588
-0.023077244 0.12439076 0.14512484 -0.08538692 -0.087368816 -0.18290785 0.036073875 0.026314273
-0.099922106 0.094446704 0.13266465 -0.18408999 0.10886435 0.038563237 -0.016691681 0.013496903
-0.21014017 -0.042056575 0.054347463 -0.07082673 0.13805334 0.11971602 0.07614033 0.036319844
0.035185304 -0.4885682 -0.004831971 -0.17077205 0.12828808 -0.16285653 -0.11327367 -0.16044563
-0.11270316 -0.16012746 -0.1455806 0.09518726 -0.061463457 0.08979574 -0.040774256 0.04985859
-0.24959098 -0.16364294 0.13920419 -0.25915688 0.03500312 -0.044704083 -0.13905682 -0.16980958
-0.2757963 -0.03904882 0.22870697 -0.07371545 0.12372464 0.1205763 -0.14026558 0.13526414
0.0108024385 -0.20933142 0.09061089 -0.04852915 0.22539124 -0.015170172 -0.028479956 0.20001398

fc2.weight f4 [128, 256]
00000000: 5b1e 89bd d0e5 02be 168e b53e cd53 51be
00000010: 3351 c6bd 6045 0dbe 2e01 df3e 5927 04bf
00000020: 9245 2d3a 10c2 df3b 4635 9ebe 1c8f e23d
00000030: d42b 5ebc cb08 5dbd b449 40be b963 b33d
00000040: a17c 92bc b779 a8be 138f 55be 572f 66bd
00000050: 8cb3 073e c694 433e d436 d0be 98fe 913d
00000060: 9a70 80be 324f bf3c 1a9b 243e 661c 1d3f
00000070: 6449 75be 4ab9 0c3e 985c 363e 7a5e f13d
00000080: f11a d73e cd8d 633d 8a76 803e 48aa 52be
00000090: 40ef e03e 0fc7 443d 4aa1 b6bd 9ac2 22bd
000000a0: 023a 663d 4e3b 3c3e 34e7 da3d 3d5d e9be
000000b0: b9db 45bd 94ac 253e d84a 04be c10e 343a
000000c0: b529 9abe 05ad eb3d f28a 2b3f 6148 ac3c
000000d0: 4b47 533e 8c97 89bd fff2 02bd 2d16 ab3d
000000e0: 9a2b 313d 04a9 0cbe 6ff9 043e 1431 9c3d
000000f0: 9a4c 70bd e480 90bd 53e4 573e cd3a e53e
00000100: e94d 53bd 6a11 d2be 0cf4 b3bc f3c2 ccbe
00000110: b4b5 943e b0ce 25bd a07e 13be 0761 dbbc
00000120: dfbc 8c3c fb97 dbbe 1386 d63d 678d c93d
00000130: db51 0dbd 0806 c53e 36f3 4fbd bec0 e43e
00000140: 1fec f339 df11 d1bb 8f3c 8abe d725 f2bd
00000150: 9469 bd3e 5c2d 0d3e dd22 993d 5925 17bd
00000160: b8db cd3d 31a6 0a3e d214 0e3e 779a 28be
00000170: d09b 8c3e eace 43be 07ce 0dbc 232d 403e
00000180: 9805 c8bd c6c7 823e 88a9 bebd ef8f 133e
00000190: 7a78 17bd bb43 093e 6b3c 143d 4ae8 e93d
000001a0: 1aaa a0bd adfe c1be 9e50 f5be 80dc 463e
000001b0: 6ffc 49bd d4fd 2abf ddd8 73bc b1c1 3dbe
000001c0: c60f 0b3d f4cd 093e 3821 07be 1270 81bd
000001d0: 66b9 30bc db9e 633e c89a 5f3c 3579 04bf
000001e0: b8a0 51bb f0af 80bc 9d36 bdbc aa4a e83d
000001f0: f361 e53d f796 ff3d 40d1 b5bd 355d 303e
00000200: eec9 0bbe dedb 6d3e 0526 86be d719 8c3c
00000210: 3419 563e 9bfa ccbd 9a5b 10bd 7988 54bd
00000220: 52e4 11bf 3f25 63bd 3b52 053e 042f 9fbd
00000230: 4358 1fbe 778d a63e b279 fabd 111c 1e3e
00000240: e4d1 99bd d4f4 473e fd4c 9c3d ca73 313e
00000250: 613f 19be dda2 ef3d 3a18 0f3e 8f5b a2be
00000260: 7a8e f2bd c120 88bd 7046 673c f8cb 313e
00000270: 9ff2 6e3d ea25 9abe 0b16 c03d c781 1a3e
00000280: 8dc5 893e 0403 98be f45d 17be f88c 343d
00000290: 8b34 0fbe 5afe 6abd 7e32 63bd 6598 48be
000002a0: 8167 033e 1eb0 c8bd 2b9c 4abd 333d 843d
000002b0: f79e b2bd cc09 69be 0b33 67bd 28f8 4bbd
000002c0: e269 0d3e 206f 2d3e 8d5a 4abd 786d f3bb
000002d0: 5e79 c7bc d572 2c3e 1408 f73b 7a4d 3c3a
000002e0: 6c25 6b3e 9813 a4be 9fbd 4c3e acc4 dc3c
000002f0: bb18 90be 9bab babe d702 aabd e762 0bbe
00000300: 5a5b 203e d73d 96bd 10cb e4bd abb8 2c3d
00000310: a92e aabd 0e82 403e 5743 3a3e d266 8bbe
00000320: eb94 a1bd 2e62 ee3d 6937 d03d 53f0 c93b
00000330: 24b1 35be e320 43be b0a8 7f3d 9d6d 2fbe
00000340: b08f 7dbe fd42 973d ea41 773d 2975 113e
00000350: f9d1 83bd 2c03 77bd b925 b1bd 6154 e43c
00000360: 9290 3b3d fd78 a83e 280b cebd d03c 993e
00000370: b2ce 973d d6b5 263d bb30 55be a137 45bd
00000380: 110f a4bd a052 56be 9bb1 653e e235 a53c
00000390: d723 253e 7853 a5be d811 c93d a192 853d
000003a0: 52c3 133e 5e39 423d 4a34 ffbe ad03 f2bd
000003b0: 4048 353d 73c1 2f3e 4b28 24be 1c46 94be
000003c0: 9df9 603e bd10 90be 6e7c c6bd da30 843d
000003d0: f1ad adbd bca7 0bbc 89b3 253e 9377 893e
000003e0: 779c 37bd 5e7d 81be 0709 06be c770 083d
000003f0: 05ae 4b3c 3b37 183c 7e06 d2bd b4de f9bc
-0.06695243 -0.12782979 0.35459965 -0.20442124 -0.09683456 -0.13795996 0.43555588 -0.5162254
0.0006609793 0.006828554 -0.3090002 0.11062452 -0.013560254 -0.053963464 -0.18778116 0.08759255
-0.017881693 -0.3290536 -0.2085536 -0.05619749 0.13252085 0.19099721 -0.4066683 0.07128638
-0.25085908 0.023353193 0.16074792 0.6137146 -0.23953778 0.13742557 0.17808759 0.11785598
0.42012742 0.055555154 0.25090438 -0.2057277 0.43932533 0.0480414 -0.08917482 -0.039736368
0.056207664 0.18381998 0.1068863 -0.45578948 -0.048305247 0.16179115 -0.12919176 0.00068686536
-0.30109945 0.1150761 0.6700889 0.021030607 0.20632665 -0.067183584 -0.03197002 0.08353839
0.043254472 -0.1373635 0.12985776 0.076265484 -0.058666803 -0.07055834 0.21083193 0.44771424
-0.051587973 -0.4102891 -0.021966957 -0.39992484 0.29044878 -0.040480316 -0.14403772 -0.026779665
0.017179905 -0.4288939 0.104747914 0.098414235 -0.03450189 0.38481164 -0.050769053 0.446783
0.00046524496 -0.006380304 -0.26999328 -0.118236236 0.36994612 0.13786834 0.07477353 -0.036900852
0.10051674 0.1353996 0.1387513 -0.16465174 0.27462626 -0.191219 -0.008655078 0.18767218
-0.09766692 0.2554304 -0.09309679 0.14410375 -0.03698013 0.13404743 0.03619043 0.11421259
-0.07844944 -0.37889615 -0.4791307 0.19420052 -0.049313005 -0.6679356 -0.014883247 -0.18530919
0.03395059 0.13457471 -0.13196266 -0.06320204 -0.01078639 0.22228567 0.013647743 -0.5174745
-0.0031986665 -0.015708894 -0.02309733 0.11342366 0.11200323 0.12479966 -0.08877802 0.17223056
-0.13651249 0.23228404 -0.26200882 0.017102165 0.20908052 -0.10008737 -0.035243608 -0.051887963
-0.56989014 -0.055455443 0.1301965 -0.077726394 -0.15561013 0.32529804 -0.12230243 0.15440394
-0.075107366 0.19526988 0.07631872 0.17329326 -0.14965583 0.117009856 0.13974085 -0.3171048
-0.118435815 -0.06646872 0.014115915 0.17362964 0.05833685 -0.3010705 0.09379204 0.15088569
0.26908532 -0.296898 -0.14781934 0.04407975 -0.13984887 -0.057371475 -0.055468075 -0.19589384
0.12832452 -0.09799217 -0.04946534 0.06456985 -0.087217264 -0.22757643 -0.056445163 -0.049797207
0.13809922 0.16936922 -0.049402762 -0.007428821 -0.024349865 0.1684068 0.007538805 0.0007183176
0.22963494 -0.320462 0.1999421 0.02694925 -0.28143868 -0.3645905 -0.08301323 -0.13611947
0.15659848 -0.07336014 -0.111715436 0.0421683 -0.08309681 0.18799612 0.1818975 -0.27226883
-0.07889732 0.1163982 0.10166819 0.006162682 -0.17743355 -0.19055514 0.062416732 -0.17131658
-0.24761844 0.07385824 0.060365595 0.1420485 -0.064365335 -0.06030576 -0.08649773 0.027872266
0.04579217 0.32904807 -0.10060722 0.2992921 0.07412471 0.040700756 -0.2081937 -0.048148755
-0.08010686 -0.20929956 0.22431032 0.020167295 0.16126953 -0.32290244 0.098178566 0.06522108
0.14429978 0.04741799 -0.4984458 -0.11817107 0.044258356 0.17163639 -0.16030996 -0.2895974
0.2197022 -0.2813777 -0.09691702 0.0645463 -0.08480442 -0.008523878 0.16181768 0.2684904
-0.04482695 -0.2529096 -0.13089381 0.033310678 0.012431626 0.009290512 -0.102551445 -0.030501701

fc2.bias f4 [128]
00000000: 5d23 c4bd b7bf cebc dd74 3dbc 0dff 78bd
00000010: 3073 c3bd 9391 213c 38e5 21be 2f31 6fbd
00000020: 2736 cabb 5b4d f23a 7519 063e 920c 723d
00000030: 4e84 033d 9b29 6bbd 1128 8bbb ca8e 6f3d
00000040: f7a7 423d 1369 ffbc 82da 4dbd d666 95ba
00000050: 1d47 61bd b995 0fbe 7ad3 51bd 7274 95bd
00000060: ddb1 15bd 443e 273d 8843 6e3c cee8 9bbc
00000070: a879 613b 8c14 ddbb be02 bebc 5b78 98bd
00000080: 1bab 23bd eacf c7bd 711d b0bc e0af 4e3d
00000090: 45f9 783c 923b aabd 5e66 fabc 58ea eabd
000000a0: b695 533d 18c6 e73c 4eac 1dbd 0bc4 0dbd
000000b0: 6e37 52bc 5d39 633d 6484 bb3d f9c4 ddbc
000000c0: a4cb e53d 7806 433d 82d4 eb3b e37f 84bc
000000d0: aeee 51bd ccb6 923d 5bd5 b7bc d06f d93d
000000e0: c600 d2bc 4be8 d5ba dce8 013c 0f78 82bc
000000f0: c36b 813d 7005 4e3d 7749 143c cf20 903d
00000100: c40c 4fbe 26b8 99bc bddd 273c 62e6 123d
00000110: 2b6f b9bd 1909 ebbd de01 f539 8b6d ae3c
00000120: 92f6 3e3c b8d5 8f3d b143 1e3c 60c2 debb
00000130: cc21 8ebd 17d2 d93c 1d34 b5b9 39e4 833d
00000140: ced4 8ebd de8f 4ebc 86cc 37bd ec9b 2bbd
00000150: ba54 f0bd 73ed e3bc ab73 88bb f881 fc3d
00000160: f118 3fbd 0c87 543d b004 9bbd 917b 35bc
00000170: 1af6 893d f887 143d 4ba2 153d 090b 103d
00000180: b232 87bc 3f9f 4b3c 55e2 b639 cb64 9fbd
00000190: 380a 8ebd d4e6 a23c e91c 3a3d bc92 d5bc
000001a0: bf10 283d 2dc1 6c3c c531 82bd 5bd0 7b3d
000001b0: 9fb4 d93d 3107 19bd 5f0d ab3c a0dd 193c
000001c0: 48a6 0a3c 21cd a7bc 821e 923d d15a 963c
000001d0: 5e2a a83d 4a3b c73c 00d6 7d3c dc2f babc
000001e0: bea8 a1bd 9c46 9ebd d457 45bc 5c19 713d
000001f0: 3d0d 14bd 2c82 62bd fc1c 41bd 62f4 b5bd
-0.095770575 -0.025237901 -0.011563507 -0.06079011 -0.09543455 0.009861368 -0.15810096 -0.058396515
-0.0061710062 0.0018486188 0.13095649 0.05909402 0.032108597 -0.057412725 -0.0042467196 0.058485784
0.047523465 -0.031178033 -0.050257213 -0.0011398445 -0.05499946 -0.14021958 -0.05122707 -0.07297601
-0.036546577 0.040830866 0.014542468 -0.019031908 0.0034404788 -0.006746834 -0.023194667 -0.07444831
-0.0399581 -0.09756453 -0.021498414 0.050460696 0.015196149 -0.083121434 -0.03056639 -0.11470479
0.051656447 0.0282927 -0.0384944 -0.03461079 -0.012830598 0.055474628 0.09156111 -0.027071463
0.11220482 0.04761359 0.0071969638 -0.016174262 -0.051253013 0.07163772 -0.022440603 0.1061703
-0.025635134 -0.0016319839 0.007929053 -0.015926389 0.06319382 0.050298154 0.0090507185 0.07037508
-0.20219713 -0.018764567 0.010245738 0.03586424 -0.09054407 -0.114763446 0.00046731433 0.021292469
0.011655467 0.070231855 0.009659694 -0.0067980736 -0.0694004 0.026589436 -0.00034561838 0.064400144
-0.06974183 -0.012607543 -0.044872783 -0.041896746 -0.1173491 -0.027823186 -0.0041641793 0.12329477
-0.046654645 0.051886603 -0.075692534 -0.011076824 0.06736393 0.036262482 0.036531728 0.035166774
-0.016503666 0.012428104 0.00034882376 -0.077828966 -0.06935543 0.019885458 0.045437727 -0.026070945
0.041031595 0.014450354 -0.06357149 0.061478 0.10630154 -0.037360374 0.0208804 0.009391218
0.008462496 -0.020483555 0.07134725 0.018353852 0.08211206 0.024320263 0.015492916 -0.0227279
-0.07893513 -0.077283114 -0.012044866 0.058862075 -0.036145438 -0.055299923 -0.047146782 -0.08884503

fc3.weight f4 [4, 128]
00000000: a4bd a53d 2d9d 7e3f f922 9fbe 3d0c d23e
00000010: 5ab6 a73e 654f 09be 8f88 41be 949b 073f
00000020: cb59 a8be 1168 13bc 0254 b5be 8f0d c93e
00000030: 1493 1b3e e3e8 023f 33f7 8bbf 5812 e73d
00000040: 40fd 18be 5942 85be b796 953e de4e cfbd
00000050: 9c13 4b3e ffa5 963f c351 233e bfbe a5be
00000060: c229 1e3e b497 223e 3fe0 073e 0ae1 79bd
00000070: 2c94 82be 9ccd 08be c02a 45be 4c27 a1be
00000080: 6d45 80be 6c07 dfbe a98e 3abe d74d 4bbd
00000090: 1857 39be 6235 863e aed5 c53e 216e 7d3f
000000a0: 36ec dfbc e8d1 febc 731f d7be 0bc8 a0be
000000b0: 3505 083e 579d e83e fbe4 9dbe 11fd 35bf
000000c0: bab5 19be 3c47 74be 6dfc 32be d404 0f3f
000000d0: bd5c 9ebe 8fec 263e 456c 2abe 9c2b 063e
000000e0: 0326 9d3e 7b4c 343f cddd a2be de7e 35bf
000000f0: 911c 14be 0303 16bf a86f 98bd 9d1b a43d
00000100: 9474 f33e 9bba e5bd 2b3d 15bf b46f 5d3d
00000110: dd1d 8d3f bb3d 06bf 914d 693e 9fc0 c33d
00000120: 8690 dd3d 6dd2 27be 37cc cf3d b085 ac3e
00000130: 9593 fe3d 9035 343f 7cb8 6dbf 05c0 c4be
00000140: 9678 62be 6b28 9d3c 9aa2 fa3e 9257 833e
00000150: d20b a6be d884 363f 0542 97bd 8734 533f
00000160: 8016 f0be df30 b0be 80f0 bc3f eb96 a3be
00000170: f57b 2cbe 52cc 5c3e d5e2 383e 3ec1 193e
00000180: e249 68be 2c9b 90bc 10e3 9b3e a9f4 bfbe
00000190: 358c 5f3f 320e 0dbe d79c a5bd 3bd7 c6be
000001a0: a1e1 d33d 7e05 d3be 0697 073d 9bc9 8bbe
000001b0: 6bc9 983e 622d 5a3e 91f0 343f ba42 623e
000001c0: fba7 703e ae79 a4be a73f c8be b80b e9bd
000001d0: 925e 9b3d dac4 b93e 203c 6b3e 7dde fdbe
000001e0: 126b 00bf be2d 633e 49f9 babe 0788 c0be
000001f0: 1bf9 a3be ebca 95be 0ff6 323f 90c3 12bf
00000200: a744 f33d ed39 4ebd 4ace 0ebe 72a2 b2be
00000210: 8e55 c53d ccb5 853c 80a4 febe 77b0 79be
00000220: ba38 533e d3c6 23bf cdf6 e3be fa01 02bf
00000230: ccc5 12bd 634c 9f3a 8c3e 063f 8a85 76be
00000240: d456 3a3e 81f3 68bf d3f6 a53e 5adf f33e
00000250: b42c b43e 7934 81be 3326 df3e 0cf4 8ebe
00000260: 6ded fb3e 4946 2bbf 0269 413e 687f 3c3f
00000270: 420d 243e 0890 be3d c628 98be c624 66be
00000280: 085f 6b3e 2c14 e3be 6a5a 40be 3523 893c
00000290: 1120 5c3e 9662 63bd 119e f3be 2800 cd3e
000002a0: 164e ffbe 9ab2 d3bc 3714 9d3e 4791 213e
000002b0: 2b7b 493e 2128 713d 939d 0dbe 2459 b23e
000002c0: 078a cdbe 3572 91be 94be 2b3e 14f7 0c3f
000002d0: f405 7bba c7f4 aebe 14e5 863e ef8e 433d
000002e0: 247e 85be b1f2 88be e235 1f3f c1d2 e73d
000002f0: 1dfa b0be 1099 42be 5d50 85be fa6b 1ebf
00000300: 1642 a9be af4e cb3e 4023 413f fead 32be
00000310: 8993 04bd d731 4dbf aa07 37bd f053 a63e
00000320: 2786 203f cb5f 74be 7042 3b3e dd27 bb3e
00000330: a10c 2cbe 161a a9be fa99 73bf e9d7 203d
00000340: be3d cb3e 96a7 8c3e 334e 813e 634c 463f
00000350: bbe9 dbbe e46d 1e3f 655e 573c 985d 863e
00000360: df5b 843f 015d e83c 7945 9cbe 12b4 b33d
00000370: 6f29 073e 97f7 4b3d 1ba6 0bbf 79cf d53e
00000380: 642b f2be e09d 7fbd 2b72 26bd 1ff2 aabe
00000390: 9ad6 a73d a56d 6e3e 5a5c 56be a085 6e3d
000003a0: 320e e03e d8ca 8fbe 7938 523e b82f a4bd
000003b0: 78e9 5dbe 8315 26be 2d9a 9c3e 9fff 1ebf
000003c0: a442 0bbe 1f85 8ebe 7d75 913d 2f67 53bf
000003d0: 52b8 183e 11fa 993e 91c5 6d3e aa97 083f
000003e0: 2aaf b0bd d5fb c53d 20cd c33d 0122 5f3d
000003f0: 27c8 bc3d f8c6 2e3e d6c4 923e 8424 cdbe
0.08092812 0.9945858 -0.3108137 0.41024962 0.3275631 -0.13409193 -0.18899749 0.5297177
-0.32881007 -0.008996979 -0.35415655 0.39268157 0.15192825 0.51136607 -1.0934814 0.11282796
-0.14940357 -0.26027182 0.2921655 -0.101224646 0.19831699 1.1769408 0.15949158 -0.3237209
0.15445617 0.15878183 0.13269137 -0.06100563 -0.2550367 -0.13359684 -0.19254589 -0.31475294
-0.25052968 -0.4356035 -0.18218483 -0.04963478 -0.1809963 0.26212603 0.38639587 0.9899617
-0.027334314 -0.03110595 -0.4201618 -0.3140262 0.13283236 0.4543254 -0.3083876 -0.71089274
-0.1501073 -0.23855299 -0.17479105 0.5586674 -0.3093013 0.16301177 -0.16642864 0.13102573
0.30693063 0.704292 -0.31809846 -0.7089671 -0.14464022 -0.58598346 -0.07443172 0.08013079
0.4754988 -0.11217233 -0.5829646 0.054061607 1.1024739 -0.52437943 0.22783495 0.09558224
0.10818581 -0.16388865 0.10146373 0.33695745 0.12430493 0.7039423 -0.92859626 -0.3842775
-0.22116312 0.019184312 0.4895218 0.25652748 -0.32430893 0.71296453 -0.07385639 0.82502025
-0.46892166 -0.34412286 1.4760895 -0.3195108 -0.16844161 0.21562317 0.1805528 0.15015122
-0.22684434 -0.017652117 0.30446672 -0.37491348 0.87323314 -0.13774946 -0.080865555 -0.38836083
0.1034577 -0.41215128 0.03310301 -0.2730225 0.2984117 0.21306375 0.70679575 0.22095767
0.2350158 -0.32124084 -0.39111063 -0.11379188 0.07586397 0.36282998 0.22972155 -0.49583808
-0.50163376 0.22185418 -0.36518314 -0.3760378 -0.3202599 -0.29256377 0.69906706 -0.57329655
0.11878329 -0.05034821 -0.1394588 -0.3488956 0.09635459 0.016322039 -0.4973488 -0.24383722
0.20627108 -0.63975257 -0.44524232 -0.50784266 -0.035833165 0.0012153502 0.5243919 -0.24074379
0.18197185 -0.9099656 0.32414874 0.4763134 0.35190356 -0.25235346 0.4358383 -0.27920568
0.4920458 -0.6690412 0.18887714 0.73631907 0.16020682 0.093048155 -0.29718608 -0.22474965
0.2298547 -0.44351327 -0.1878449 0.01674042 0.21496607 -0.05551394 -0.47581533 0.40039182
-0.49864262 -0.025842 0.30679485 0.15778075 0.19675891 0.05887616 -0.13829641 0.34833634
-0.4014437 -0.28407446 0.16771919 0.5506451 -0.0009575777 -0.34171125 0.26346648 0.047743734
-0.260728 -0.2674766 0.62191594 0.11319495 -0.3456582 -0.19003701 -0.26037875 -0.6188351
-0.33058232 0.39708468 0.7544441 -0.17449185 -0.032367263 -0.80154175 -0.044685043 0.32485914
0.627047 -0.23864667 0.18287063 0.3655385 -0.16801693 -0.33027714 -0.95156825 0.039268408
0.39695543 0.27471608 0.25254974 0.77460307 -0.4295176 0.6188643 0.013145064 0.2624328
1.0340537 0.02836466 -0.30521753 0.0877458 0.131994 0.049796667 -0.5455033 0.41759852
-0.4729873 -0.06240642 -0.040636223 -0.3338785 0.08195229 0.23284014 -0.20933667 0.058232903
0.4376083 -0.28084445 0.20529355 -0.08016914 -0.21671093 -0.16219144 0.30586377 -0.62108797
-0.1359964 -0.27835938 0.07102487 -0.8257932 0.14914063 0.30073598 0.23219897 0.5335642
-0.0862716 0.09667174 0.09560609 0.054475788 0.092178635 0.17068088 0.286658 -0.40066922

fc3.bias f4 [4]
00000000: e310 b6bd 6af1 61bd 3a7d c93d fb66 c43c
-0.0888994 -0.05516187 0.09838338 0.023974886
